Advanced learning for text and graph data/Lab_7_El_Founoun_Zakaria/code/part1/model_deepsets.pth.tar (torch, 122907 bytes, 12 tensors)

embedding.weight f4 [11, 128]
0	0xbe299a09	-0.16562666
1	0xbdfab14f	-0.1224085
2	0xbe21bff0	-0.15795875
3	0x3ff30892	1.898699
4	0x3ef253a4	0.47329438
5	0x3f33c6a6	0.7022499
6	0xbfe0b7ea	-1.7556126
7	0x3e92cf25	0.28673664
8	0x3f8f9212	1.1216452
9	0xbf9274f3	-1.144194
10	0xbf9eddfa	-1.2411492
11	0x3f6e949c	0.9319551
12	0x3fca4e1f	1.5805091
13	0x3eee288d	0.46515313
14	0xbf2ca19a	-0.67434084
15	0x3dfdb72c	0.12388453
16	0x3e8f7997	0.28022453
17	0xc01b5a7e	-2.4273982
18	0xbf533317	-0.8249983
19	0xc0271c05	-2.6110852
20	0xbf958344	-1.1680684
21	0xbe9b4f42	-0.30333906
22	0xbf927edc	-1.1444964
23	0x404306f0	3.0472984
24	0xbec33454	-0.3812586
25	0xbe8843f1	-0.26614335
26	0xbfe47693	-1.7848686
27	0x3f085188	0.53249407
28	0xbde8a84e	-0.113602266
29	0xbfe5c6df	-1.7951316
30	0x3f6a1830	0.9144316
31	0xc09d3c7b	-4.913633
32	0xbf32924b	-0.69754475
33	0xbd959936	-0.07304613
34	0x401e5293	2.47379
35	0xbff6cbd8	-1.9280958
36	0xbf2cf990	-0.675683
37	0x3f31668c	0.692971
38	0x3f81a094	1.012713
39	0xbfbc50ff	-1.4712218
40	0x3ec23a39	0.37935045
41	0xbf521b27	-0.8207268
42	0x3e330e84	0.17486006
43	0xbfc365f9	-1.5265495
44	0xbd671a74	-0.056421712
45	0xbfbfb08d	-1.4975754
46	0xbf5f3c04	-0.8720095
47	0x3fc60097	1.546893
48	0xbfe115fa	-1.7584832
49	0xbfc9b938	-1.5759649
50	0xbf320beb	-0.69549435
51	0x3fe36f92	1.7768424
52	0xbfa09708	-1.2546091
53	0x4003fa10	2.0621376
54	0xbfdf3b9c	-1.7440066
55	0x3f04aa5c	0.5182245
56	0xbf81c49a	-1.0138123
57	0x3e8b9cc9	0.27268055
58	0x3f7a198a	0.9769522
59	0x3f1d3dc1	0.61422354
60	0x3fcc6bc4	1.5970387
61	0xbd12f908	-0.035882026
62	0xbd823660	-0.063580275
63	0xbeb88971	-0.3604236
64	0xbf981c7f	-1.1883696
65	0x3f3946b2	0.723735
66	0x3f358208	0.70901537
67	0x3fb0c4dc	1.3810077
68	0x3ee7045f	0.45120522
69	0x3f6cd978	0.9251933
70	0x3f322a90	0.69596195
71	0xbeacb941	-0.33735088
72	0x3f20e8c5	0.6285518
73	0x401c903b	2.4463031
74	0x3f98dd71	1.1942579
75	0x3f81d986	1.0144508
76	0xbfb9d6ef	-1.4518718
77	0xbfecdecf	-1.8505496
78	0xbfbe95d2	-1.4889472
79	0xbfd05953	-1.627726
80	0x3f1dca32	0.6163665
81	0xbfcfb545	-1.6227194
82	0xbe8ec968	-0.27888036
83	0xbf9f9626	-1.2467697
84	0xbfdf39b5	-1.7439486
85	0xbf3d62f3	-0.7397911
86	0xbe8c44a7	-0.27396128
87	0x3e915fab	0.283933
88	0xbd500d36	-0.05079385
89	0xbe0d2288	-0.13782704
90	0x3e8e457c	0.27787387
91	0x3eab6131	0.3347259
92	0xbf690e0d	-0.91037065
93	0xbdaa1cd5	-0.083062805
94	0xc00ec207	-2.2305925
95	0xbf0d1de0	-0.5512371
96	0xbfbe2568	-1.4855165
97	0xbef8512f	-0.48499438
98	0x3f3cecd6	0.7379888
99	0x3ed25269	0.410785
100	0xbf1f157e	-0.6214217
101	0x3feb1605	1.8366095
102	0xbd2405e0	-0.040044665
103	0x3ecd2467	0.40066835
104	0x3e2d905a	0.16949597
105	0x3eea29e1	0.45735076
106	0x40154c3e	2.3327785
107	0x3e35a4ae	0.17738602
108	0x3f41a6d1	0.75645167
109	0xbe8b5c03	-0.27218637
110	0xbe85933c	-0.26088893
111	0xbce054f3	-0.027384257
112	0x3fd9d73e	1.7018812
113	0x3f98f7b4	1.1950593
114	0x3fcc7cf7	1.5975636
115	0xbe5b2e01	-0.21404268
116	0x3eff7abf	0.49898335
117	0xbd044ce2	-0.032299884
118	0x3e67d79d	0.22640844
119	0xbd7bd067	-0.061478045
120	0x3f07f0c5	0.5310176
121	0x3eee5d73	0.4655567
122	0x3f2109a0	0.6290531
123	0xbeef7af9	-0.46773508
124	0xbf2b3b48	-0.6688733
125	0x3efab433	0.48965606
126	0x3f811480	1.0084381
127	0x3fcf57aa	1.6198628
128	0xbf5ef08b	-0.8708579
129	0xbf1f154e	-0.62141883
130	0xbd804099	-0.06262321
131	0xbf823579	-1.0172569
132	0x3e7db01a	0.24774209
133	0x3f8a638d	1.081163
134	0x3e4719d1	0.19443442
135	0x3e8be92e	0.2732634
136	0xbf440390	-0.76567936
137	0x3ebf0e10	0.37315416
138	0x3f0a873c	0.541126
139	0xbe0e0453	-0.13868837
140	0x3fec7acc	1.8474975
141	0xbf4fd934	-0.811908
142	0x3f70897e	0.93959796
143	0x3ed8438a	0.42239028
144	0xbf96c123	-1.1777691
145	0x3eb581f5	0.35450712
146	0xbf8bbb61	-1.0916559
147	0xbf8246cb	-1.0177854
148	0xbca5d11a	-0.020241309
149	0x3f54c221	0.8310872
150	0x3f4abae2	0.7919141
151	0xbf4e617b	-0.80617493
152	0x3ff7a441	1.9347001
153	0x3e76e3e2	0.24110368
154	0xbfbebb90	-1.490099
155	0xbf852402	-1.0401614
156	0xbfbd6609	-1.4796764
157	0x400ac7b6	2.1684394
158	0x3f07b360	0.5300808
159	0x3fa266c5	1.2687613
160	0xbfa81b0b	-1.3133253
161	0xbf725d5e	-0.9467372
162	0x3fd347f0	1.6506329
163	0xbed5163e	-0.41618532
164	0x40270e06	2.610231
165	0x3f6e160a	0.9300238
166	0x3f2b5d11	0.66938883
167	0xbe2d713c	-0.16937727
168	0x3f543dc0	0.82906723
169	0x3e8e0a3e	0.2774219
170	0xbeb3f4fc	-0.35147846
171	0x3e99f4a2	0.30069453
172	0x3eb20c18	0.34774852
173	0xbe205055	-0.15655644
174	0xbf8bcccd	-1.0921875
175	0xbe728279	-0.23682584
176	0xbe98e14e	-0.29859394
177	0xbe9490f4	-0.2901684
178	0xbf505b51	-0.8138934
179	0xbfa62b8f	-1.2982043
180	0x3e5dc189	0.21655859
181	0x3f026045	0.50928146
182	0xbe835964	-0.25654137
183	0x3dea6b63	0.11446264
184	0x3ec8be9e	0.3920793
185	0xbeeb26e0	-0.45928097
186	0xbeebec79	-0.46078852
187	0xbeaa8ee3	-0.3331214
188	0xbdca3dc6	-0.098750636
189	0x3e426606	0.18984231
190	0xbfa50542	-1.289223
191	0xbef628be	-0.4807796
192	0x3f100b6c	0.5626743
193	0xbf36900c	-0.7131355
194	0xbf5f8abb	-0.8732106
195	0x3f007408	0.5017705
196	0x3f966126	1.1748397
197	0xbe95ad7c	-0.2923392
198	0xbfb910fe	-1.4458311
199	0x3fa174b5	1.2613741
200	0xbf17403a	-0.59082377
201	0x3fa05eec	1.2528968
202	0xbf268873	-0.65051955
203	0x3ef16b2b	0.47152075
204	0x3f0b7d08	0.5448766
205	0xbf92e57e	-1.1476285
206	0xc0479261	-3.1183093
207	0x3f8cb395	1.0992304
208	0xbeeec83b	-0.4663714
209	0xbf4afeb6	-0.7929491
210	0xbf90c67e	-1.1310575
211	0xbe8e076a	-0.2774003
212	0xbed688ba	-0.4190119
213	0xbf8f411f	-1.1191748
214	0x3ec2dde1	0.38059905
215	0xbf5ab519	-0.85432583
216	0xbfa8a32f	-1.31748
217	0xbe6884c0	-0.2270689
218	0x3eb29de2	0.3488608
219	0x3e999873	0.29999122
220	0x3f38d929	0.7220636
221	0x3c930b60	0.01794976
222	0xbf58fb80	-0.8475876
223	0x3f565b9e	0.83733547
224	0x3fa700ef	1.304716
225	0xc018499e	-2.3794932
226	0x3f268816	0.650514
227	0x3f34213b	0.70363206
228	0xbccb90e0	-0.024849355
229	0x3f5d9a8e	0.86563957
230	0x3f2c0f67	0.67211
231	0xbf4705a8	-0.77743006
232	0x4057d204	3.3721933
233	0xbed63077	-0.4183385
234	0x40250007	2.5781267
235	0x3f5288b8	0.82239866
236	0x3e77a4cb	0.24183957
237	0x3f9cf723	1.226292
238	0xbf83970b	-1.028047
239	0xbe3c3a16	-0.18381533
240	0x3f01649e	0.50544155
241	0xbfafb346	-1.3726585
242	0xbe407375	-0.18794043
243	0xbe783580	-0.24239159
244	0xbe022d6a	-0.12712637
245	0x3fa00ac4	1.2503285
246	0xbe838549	-0.25687626
247	0xbdf31d59	-0.11870832
248	0x3fb8b049	1.4428798
249	0xbf17e717	-0.5933699
250	0xbfa9b4c6	-1.3258293
251	0x3fce83a4	1.6133924
252	0x3f2d541c	0.67706466
253	0xbeb1e635	-0.34745947
254	0xbd8dddae	-0.06927048
255	0x3f3192d8	0.6936469

fc1.weight f4 [64, 128]
0	0x3db09274	0.08621684
1	0x3e1d57a4	0.15365463
2	0xbd8abe04	-0.06774524
3	0xbcf3412c	-0.029694162
4	0xbdd6570f	-0.10465824
5	0x3ceefb49	0.029172556
6	0xbd52abb9	-0.0514333
7	0xbd385e1d	-0.04501163
8	0xbda68774	-0.081313044
9	0xbdbcc68f	-0.092175595
10	0x3dcdc31e	0.10046981
11	0xbe3e3f8c	-0.18578929
12	0x3e2ea5f1	0.17055489
13	0xbe5cb81b	-0.21554606
14	0x3b21d00d	0.0024690658
15	0x3e1f060a	0.15529647
16	0xbd802e04	-0.06258777
17	0xbd17d680	-0.037069798
18	0x3d94ab6b	0.07259258
19	0xbdda1a99	-0.10649604
20	0xbdc31466	-0.09525375
21	0x3d6b8e1e	0.05750858
22	0x3cce8bb3	0.025213098
23	0xbd89a51e	-0.06720947
24	0x3e33d550	0.17561841
25	0x3e11bf87	0.14233218
26	0x3e06c278	0.13160121
27	0xbe00eeb5	-0.1259106
28	0xbe7c684f	-0.24649166
29	0x3e670286	0.22559556
30	0x3df500da	0.11963053
31	0x3e06c2c6	0.13160238
32	0x3defb139	0.117037244
33	0xbe1d2743	-0.15347008
34	0x3d1ef2c6	0.038805746
35	0x3dee26c6	0.11628489
36	0x3e16e3d7	0.14735352
37	0xbe2fd187	-0.17169772
38	0x3e0fd9fc	0.14047998
39	0xbd5e64ef	-0.054295477
40	0x3e2795e0	0.16365767
41	0x3e440899	0.19143905
42	0xbd57290d	-0.052529383
43	0x3cd296b9	0.025706636
44	0x3deb3837	0.114853315
45	0x3e1063e0	0.141006
46	0x3d6bda5e	0.057581298
47	0xbe1f1074	-0.1553362
48	0x3b2091dd	0.0024501004
49	0xbe0ff3c2	-0.1405783
50	0x3c04a7c7	0.008096642
51	0xbe766f39	-0.24065866
52	0xbd82d48f	-0.063881986
53	0xbe0a49dc	-0.13504738
54	0xbd8a33ca	-0.06748159
55	0xbdb4d6aa	-0.088300064
56	0x3dae8b6b	0.085226856
57	0xbe39f117	-0.18158375
58	0xbe589e87	-0.21154223
59	0xbcbb612c	-0.022873484
60	0xbe4f2f80	-0.20232964
61	0xbe285a59	-0.16440715
62	0xbe1c9c2e	-0.15293953
63	0xbe1c9056	-0.15289435
64	0xbd135840	-0.035972834
65	0xbd5584c2	-0.05212856
66	0xbe461887	-0.19345294
67	0xbe04f24a	-0.12983051
68	0x3e67b0f8	0.22626102
69	0xbd9d3df8	-0.07677835
70	0xbe5df590	-0.21675706
71	0x3e2adcc6	0.16685781
72	0x3d5f83db	0.054569107
73	0xbdea193f	-0.114305966
74	0xbe029750	-0.12753034
75	0xbda7308e	-0.08163558
76	0x3e38e5e8	0.18056452
77	0x3c769450	0.015050009
78	0xbddddf93	-0.10833659
79	0x3e31ad33	0.17351227
80	0xb8b3bbf8	-8.570397e-05
81	0x3de36e83	0.11105063
82	0x3e2c2976	0.16812691
83	0x3e635874	0.22201711
84	0x3d0f443b	0.03497718
85	0x3dab5ba2	0.08367087
86	0x3c7eb078	0.015545003
87	0x3dfbad63	0.1228893
88	0x3d8aefb7	0.06784003
89	0xbe33c435	-0.17555316
90	0x3de1f58b	0.11033162
91	0x3db7819a	0.089602664
92	0xbdc3ffaf	-0.09570252
93	0x3e26d19c	0.16290897
94	0x3c31f79d	0.010862258
95	0xbdb900e1	-0.09033371
96	0x3e471e3c	0.19445127
97	0xbdde622a	-0.10858567
98	0xbe1b5ab2	-0.15171316
99	0x3d48c93e	0.049020045
100	0x3c652965	0.01398692
101	0x3dd340fc	0.10315129
102	0xbb82043c	-0.00396779
103	0xbbb0e8ff	-0.005398869
104	0xbd9e8176	-0.077395365
105	0xbe23dc90	-0.16002107
106	0x3d7c7930	0.06163901
107	0xbcd1c02b	-0.025604328
108	0xbdedcbcd	-0.116111375
109	0xbd6ff01d	-0.0585786
110	0xbdf7ffd2	-0.12109341
111	0xbe54937d	-0.20759387
112	0x3c8d2e0c	0.01723387
113	0xbe29e118	-0.16589773
114	0x3bc4bb7e	0.006003796
115	0x3e117522	0.14204839
116	0xbc94f7e8	-0.018184617
117	0x3e1ae7da	0.15127507
118	0x3e124fd4	0.14288265
119	0x3cdaca8e	0.026707914
120	0xbe045498	-0.12922895
121	0xbe03ec22	-0.12883046
122	0xbdf8d78d	-0.12150488
123	0xbde83bdf	-0.113395445
124	0x3e775fc8	0.24157631
125	0xbdc21d1e	-0.0947821
126	0x3d0e8511	0.03479487
127	0xbe12590f	-0.14291786
128	0x3d1e077f	0.038581368
129	0xbe359be9	-0.17735256
130	0x3e08e5af	0.13368867
131	0x3d1c93d6	0.038226925
132	0x3dbdb61a	0.09263249
133	0x3de83eba	0.11340089
134	0x3b2104cc	0.002456951
135	0xbba22588	-0.0049483217
136	0xbd6b6e63	-0.05747832
137	0x3d6bf9d2	0.057611294
138	0xbd6cc02b	-0.057800453
139	0x3e03998d	0.12851544
140	0x3e21a8df	0.15787075
141	0xbc8376ec	-0.016047917
142	0x3d70a353	0.058749508
143	0xbe884c8a	-0.26620895
144	0xbdd1656c	-0.10224423
145	0xbdd2b0e0	-0.102876425
146	0x3d25c8c8	0.040474683
147	0xbd20f970	-0.039300382
148	0xbd223f29	-0.039611015
149	0x3db7a610	0.08967221
150	0xbd9317c6	-0.07182269
151	0xbc3d4381	-0.011551739
152	0xbe5015a2	-0.20320752
153	0xbe30662d	-0.17226477
154	0xbc593258	-0.013256632
155	0x3d0190db	0.031632286
156	0xbdeb8ace	-0.11501084
157	0x3d54f5f4	0.05199237
158	0x3e69805d	0.22802873
159	0xbe114a27	-0.14188443
160	0xbe1f87be	-0.15579125
161	0x3e0543cc	0.13014144
162	0x3d83cb6f	0.06435286
163	0xbc08125f	-0.008305161
164	0xbdac67a1	-0.08418203
165	0x3ca0f347	0.019647254
166	0x3e4bf618	0.19918096
167	0x3cda5a4e	0.026654389
168	0xbd20c8e3	-0.03925408
169	0x3e4ea078	0.20178401
170	0xbe9edd70	-0.31028318
171	0xbcb74fa2	-0.02237684
172	0x3c7b9e7d	0.015357611
173	0x3e188c49	0.14897265
174	0xbcf5f6eb	-0.030024966
175	0xbc480226	-0.0122075435
176	0xbd6de0df	-0.058075782
177	0xbe0ab796	-0.13546595
178	0x39e70ed0	0.0004407079
179	0xbe162cfe	-0.146656
180	0xbb99180d	-0.0046720565
181	0x3e1104ca	0.14161983
182	0xbe3d5e94	-0.1849311
183	0x3c127218	0.008938335
184	0xbcc3d0a9	-0.023903208
185	0x3dd79e74	0.105282694
186	0xbdb75330	-0.08951414
187	0xbe3b4577	-0.18288217
188	0x3d8956ad	0.06705985
189	0x3d8c40b2	0.06848277
190	0xbe8ad306	-0.27114123
191	0x3d68ccd6	0.05683597
192	0x3cc18c87	0.023626579
193	0x3d9e93fe	0.07743071
194	0x3b47fdea	0.0030516335
195	0x3e1ba3f0	0.15199256
196	0x3e45c715	0.19314225
197	0xbe35af50	-0.17742658
198	0x3cb0577b	0.021526089
199	0xbdb2061f	-0.08692574
200	0xbd1a629b	-0.037691694
201	0x3ccf076e	0.025272097
202	0x3dde19d7	0.10844772
203	0x3ce2e8c8	0.02769889
204	0xbc57fb60	-0.013182491
205	0xbdafc5f3	-0.08582678
206	0xbe1afdbd	-0.15135856
207	0xbd7be539	-0.0614979
208	0xbca666ac	-0.02031263
209	0xbd86972a	-0.06571801
210	0x3d187c1c	0.037227735
211	0xbdd249f7	-0.10268014
212	0xbdb217da	-0.086959556
213	0xbd9602bf	-0.073247425
214	0x3cbeea22	0.023305003
215	0xbd463a0b	-0.048395198
216	0xbe244d1f	-0.16045044
217	0x3b042f72	0.0020169881
218	0xbe2247fa	-0.1584777
219	0x3da3336c	0.07968792
220	0xbdb21a9b	-0.08696481
221	0x3df6cdda	0.12050982
222	0xbc1428c8	-0.009042926
223	0x3debfa73	0.11522379
224	0xbd8826f4	-0.06648055
225	0x3d1822e2	0.03714264
226	0xbd7ad89b	-0.061241727
227	0x3e18a8ef	0.14908193
228	0x3e0d0fa9	0.13775505
229	0xbcc7aa36	-0.024373155
230	0x3e188d65	0.14897688
231	0xbdad4b49	-0.08461625
232	0x3d8fe3a7	0.07025843
233	0x3c467826	0.012113607
234	0x3def9976	0.11699192
235	0x3dfe9361	0.12430454
236	0x3dffc203	0.12488177
237	0x3d0cdb2f	0.034388717
238	0xbd96ec01	-0.07369233
239	0xbb32599c	-0.0027214056
240	0x3db6e428	0.08930236
241	0x3da55fab	0.08074888
242	0x3dbe70f0	0.09298885
243	0xbdc9b44b	-0.09848841
244	0xbd26a668	-0.04068604
245	0xbcadace2	-0.021200601
246	0xbd9a3568	-0.07529718
247	0xbda09e30	-0.07842672
248	0x3d186576	0.037206136
249	0xbd651f00	-0.055937767
250	0x3c40b265	0.011761283
251	0x3cba5a22	0.022748057
252	0xbd811783	-0.06303313
253	0x3dd6018f	0.10449516
254	0x3e20f79f	0.1571946
255	0x3d2317d6	0.039817654

fc1.bias f4 [64]
0	0xbe0044b7	-0.12526213
1	0x3e0b8709	0.1362573
2	0x3d15f1fb	0.036607724
3	0x3d476b2b	0.048686188
4	0x3e02559d	0.12727971
5	0xbe0f0e21	-0.13970234
6	0x3e091092	0.13385227
7	0xbd2be21a	-0.041963674
8	0xbdf9f5ae	-0.12205063
9	0xbe11ea5c	-0.14249557
10	0xbd373448	-0.044727594
11	0xbd93a35f	-0.07208895
12	0x3c63d8c4	0.013906661
13	0x3de9b2b7	0.1141104
14	0x3e1601e4	0.14649159
15	0x3e5479b2	0.20749548
16	0x3e15fc23	0.14646964
17	0x3ce2c751	0.027682932
18	0xbd3471c7	-0.04405382
19	0x3de5fb24	0.11229542
20	0x3e48a3cb	0.19593732
21	0x3dd30707	0.10304075
22	0xbe0f2029	-0.13977112
23	0x3e044c1f	0.12919663
24	0xbd00fe4b	-0.031492513
25	0xbb368f9a	-0.002785659
26	0xbd591af0	-0.053004205
27	0xbe0e08a5	-0.13870485
28	0xbbf8d6ee	-0.007593981
29	0x3dc556cb	0.09635695
30	0x3e3aeac3	0.18253617
31	0x3dc73059	0.097260185
32	0xbc170bd1	-0.009219126
33	0xbdac085f	-0.08400034
34	0xbc9ff871	-0.019527646
35	0x3e3f0be5	0.18656881
36	0x3e53d31b	0.20685999
37	0xbde5a0fd	-0.11212347
38	0x3dfbab66	0.12288551
39	0x3dec51e6	0.115390584
40	0xbe37c501	-0.17946245
41	0xbe0dd357	-0.13850151
42	0xbbf9dd83	-0.007625283
43	0x3d25519a	0.040361024
44	0x3c23a23f	0.009987413
45	0x3e1371dd	0.14398904
46	0xbd2b0969	-0.04175702
47	0xbc633ab1	-0.013868974
48	0xbde92cf2	-0.11385526
49	0xbe0f3ccb	-0.13988034
50	0x3db9879e	0.0905907
51	0xbe358bce	-0.17729113
52	0xbb525c65	-0.0032098528
53	0xbc55f6e9	-0.013059356
54	0x3e4a59bf	0.19760798
55	0xbcd54a9c	-0.026036553
56	0x3c8fa79b	0.017535975
57	0xbe1e032c	-0.15430897
58	0x3e035b96	0.12827906
59	0xbdc79d0b	-0.097467504
60	0x3b132b67	0.002245629
61	0x3dd5a2b2	0.10431422
62	0x3e4c106a	0.19928136
63	0xbd2eaf6e	-0.04264777

fc2.weight f4 [1, 64]
0	0xbdba4b1e	-0.09096359
1	0x3dc5126b	0.096226536
2	0x3e06f828	0.13180602
3	0x3dd504bc	0.10401294
4	0x3d87cbbb	0.066306554
5	0xbdf29762	-0.1184528
6	0x3e246735	0.16054995
7	0xbe24c842	-0.16092017
8	0xbe342742	-0.175931
9	0xbdad6de0	-0.084682226
10	0xbe27bed6	-0.16381392
11	0xbe02e568	-0.12782824
12	0xbdf70e59	-0.120632835
13	0x3dcf5c82	0.10125066
14	0x3dee17b7	0.11625617
15	0x3e0a0049	0.13476671
16	0xbeb1d855	-0.3473536
17	0xbe4f34b3	-0.20234947
18	0x3e83676b	0.2566484
19	0x3e79b6e3	0.24386172
20	0x3df0e37e	0.11762141
21	0x3e31f364	0.17378002
22	0xbe1b9814	-0.15194732
23	0x3e1a74f8	0.15083683
24	0xbe598ca8	-0.21245062
25	0xbe260bea	-0.16215482
26	0xbe1f5b9b	-0.15562288
27	0xbe0fd056	-0.14044318
28	0x3e3eb22c	0.18622655
29	0x3e34c57c	0.1765346
30	0x3e1236d1	0.14278723
31	0x3e18f6bb	0.1493787
32	0xbe751f72	-0.23937777
33	0xbdf1faad	-0.11815391
34	0xbdd5ccba	-0.10439439
35	0x3d9e8013	0.07739272
36	0x3e28ac2d	0.1647193
37	0xbe20e0ce	-0.15710756
38	0x3e1387c7	0.14407264
39	0x3e2f4d9d	0.17119451
40	0xbe330397	-0.17481838
41	0xbe30df07	-0.17272578
42	0xbe233919	-0.1593975
43	0xbe50cab2	-0.20389822
44	0x3e7d24f8	0.24721134
45	0x3e4d33ad	0.20039244
46	0xbdebb1af	-0.115085
47	0x3de73b5d	0.112906195
48	0xbe09280d	-0.13394184
49	0xbe3663d3	-0.17811517
50	0x3e136463	0.14393763
51	0xbdc961e6	-0.09833126
52	0x3e30029c	0.17188495
53	0xbe4227d6	-0.18960509
54	0x3e05cc91	0.13066317
55	0xbe72024c	-0.23633689
56	0xbe0d1f85	-0.13781555
57	0xbd9ee304	-0.077581435
58	0x3e443334	0.19160157
59	0xbe5b31b1	-0.21405675
60	0x3e4eb0af	0.20184587
61	0x3de1d96e	0.110277995
62	0x3e2730a7	0.16327153
63	0xbdfe8c27	-0.12429076

exp_avg f4 [11, 128]
0	0xb6a7fa16	-5.0061017e-06
1	0xb7246e37	-9.800823e-06
2	0x37364ac3	1.0865452e-05
3	0xb683d145	-3.9284664e-06
4	0x37168512	8.97168e-06
5	0x3711fd5d	8.701664e-06
6	0x36e70cda	6.8858326e-06
7	0x372d81a6	1.034179e-05
8	0xb6d71858	-6.4103333e-06
9	0x36ffc6ec	7.6227498e-06
10	0xb7174803	-9.017068e-06
11	0x36decf7e	6.640271e-06
12	0x366f516a	3.5661164e-06
13	0x3722d27c	9.70496e-06
14	0x3726c971	9.941273e-06
15	0xb74e893e	-1.2310511e-05
16	0xb6ef7a1c	-7.1369705e-06
17	0x34caf7c5	3.7805708e-07
18	0xb6373f9d	-2.7306153e-06
19	0xb4f3dcd0	-4.542294e-07
20	0x3718bbc2	9.103622e-06
21	0xb655b198	-3.1842847e-06
22	0x372b2f68	1.0203432e-05
23	0xb3a9f788	-7.9147014e-08
24	0xb567b916	-8.632354e-07
25	0xb75fcc22	-1.3339364e-05
26	0xb6e1009c	-6.7055935e-06
27	0x371a6c5b	9.204344e-06
28	0x3680437c	3.8225535e-06
29	0x36209a4e	2.3931675e-06
30	0xb53f98ba	-7.137529e-07
31	0x350ea486	5.3138535e-07
32	0xb70108aa	-7.691016e-06
33	0x36fecf74	7.5939406e-06
34	0x370697af	8.022339e-06
35	0xb5579226	-8.0306415e-07
36	0xb573368a	-9.060392e-07
37	0x3720c563	9.582701e-06
38	0xb5cc3db1	-1.5217139e-06
39	0x36dd4a1a	6.59494e-06
40	0xb72c9d83	-1.02886725e-05
41	0x3605359d	1.9849751e-06
42	0xb715cdb9	-8.928991e-06
43	0xb5a76e4c	-1.247457e-06
44	0xb7258049	-9.864635e-06
45	0xb5c63adc	-1.476928e-06
46	0xb70b0144	-8.28534e-06
47	0xb46c803c	-2.2025864e-07
48	0x36c4a8c2	5.860901e-06
49	0x369d0a00	4.6801288e-06
50	0xb708fbe8	-8.164883e-06
51	0x3552bf30	7.850931e-07
52	0x372c602c	1.0274391e-05
53	0x3710541e	8.602654e-06
54	0x36097138	2.0480493e-06
55	0x36810df3	3.8461235e-06
56	0xb3f95aea	-1.1611503e-07
57	0x373307e1	1.0671066e-05
58	0x35e25256	1.6862275e-06
59	0x35a89013	1.2558907e-06
60	0x36a76b09	4.9894484e-06
61	0x372a62bd	1.0155779e-05
62	0xb71db45c	-9.399922e-06
63	0x37060df4	7.990271e-06
64	0x36fec4a8	7.5926837e-06
65	0x370f3f67	8.538226e-06
66	0x367ea2b2	3.794365e-06
67	0x36d931ca	6.4729e-06
68	0xb5fd4ade	-1.8871758e-06
69	0xb6cb92f1	-6.0669777e-06
70	0x3711bfd6	8.687339e-06
71	0x3656e566	3.2022012e-06
72	0xb5e5e6c5	-1.7128992e-06
73	0x3716f692	8.998106e-06
74	0x3676ab82	3.6756687e-06
75	0x370ddaed	8.4552275e-06
76	0x3614effd	2.219341e-06
77	0xb603adb1	-1.9621623e-06
78	0xb6674fde	-3.4468171e-06
79	0xb590718c	-1.0761883e-06
80	0xb637bcc5	-2.7379003e-06
81	0xb6b997f3	-5.531119e-06
82	0xb71943e4	-9.135318e-06
83	0xb70536bb	-7.940161e-06
84	0xb63b3b41	-2.7899662e-06
85	0xb6ae54bd	-5.195469e-06
86	0x36bb6eb9	5.585924e-06
87	0xb720378b	-9.549675e-06
88	0xb7468a53	-1.1833926e-05
89	0x3723dd8a	9.767138e-06
90	0xb73bd5ef	-1.1195879e-05
91	0xb6372a2c	-2.7293672e-06
92	0x372e29e2	1.038096e-05
93	0xb6ec8ffe	-7.050111e-06
94	0x36c2e098	5.8077967e-06
95	0x3720a4a3	9.575076e-06
96	0xb6de6f1e	-6.6290513e-06
97	0xb6a206e8	-4.82878e-06
98	0x3651e50a	3.1276745e-06
99	0x368d7715	4.2159904e-06
100	0x37176a74	9.025087e-06
101	0x34bb1b0c	3.4851143e-07
102	0x36de0a66	6.617326e-06
103	0xb6cb44bd	-6.0578736e-06
104	0x370b7350	8.311894e-06
105	0x3700ddba	7.681019e-06
106	0x36728282	3.6136776e-06
107	0x36f365ca	7.253814e-06
108	0x36eaa50c	6.9929574e-06
109	0x36e66d36	6.867248e-06
110	0x35c0e639	1.4372118e-06
111	0x37253bb9	9.848672e-06
112	0xb5d30f65	-1.5725205e-06
113	0x36c09ca9	5.7402835e-06
114	0xb6574f97	-3.2083824e-06
115	0xb73ba407	-1.1184259e-05
116	0x3619dca5	2.2927209e-06
117	0xb6dfad82	-6.666117e-06
118	0xb651f6bd	-3.1287047e-06
119	0x34ed70da	4.42268e-07
120	0x37152b71	8.891207e-06
121	0xb4b6831e	-3.3995542e-07
122	0xb4adeb24	-3.2394848e-07
123	0x37380674	1.0968757e-05
124	0xb702040d	-7.749547e-06
125	0x36c91a5a	5.9933345e-06
126	0xb4f2fcd0	-4.5259958e-07
127	0x367f174c	3.8011522e-06
128	0xb8199d3a	-3.662447e-05
129	0xb883f2e2	-6.291807e-05
130	0x388e013b	6.771317e-05
131	0xb811697e	-3.466894e-05
132	0x38784afa	5.9197635e-05
133	0x38868aac	6.4154476e-05
134	0x385ccb64	5.264151e-05
135	0x38934647	7.0225964e-05
136	0xb8602acc	-5.344562e-05
137	0x385a3e6b	5.203338e-05
138	0xb86af62f	-5.6019224e-05
139	0x383d521b	4.5137578e-05
140	0x37f94c5e	2.9718674e-05
141	0x3882c972	6.236405e-05
142	0x389f5ad6	7.59863e-05
143	0xb8a7eaca	-8.0069134e-05
144	0xb86b0ae0	-5.6038494e-05
145	0x370c4bc4	8.362291e-06
146	0xb7a14b12	-1.9227653e-05
147	0x366a8a02	3.4949048e-06
148	0x388e4b50	6.785116e-05
149	0xb7930b76	-1.7529102e-05
150	0x389dc3e4	7.522831e-05
151	0xb727b8e0	-9.99702e-06
152	0x35f28d93	1.8071609e-06
153	0xb8a75da0	-7.9806196e-05
154	0xb8326a16	-4.2537307e-05
155	0x3864a420	5.451229e-05
156	0x37b74a13	2.1849793e-05
157	0x37e97cca	2.7833874e-05
158	0xb6cc489a	-6.0881257e-06
159	0x379f5a2c	1.8996267e-05
160	0xb8593194	-5.1783005e-05
161	0x383cd98c	4.50253e-05
162	0x386fce29	5.7174042e-05
163	0xb4eddec6	-4.430678e-07
164	0x370949f9	8.183059e-06
165	0x3882a694	6.229911e-05
166	0xb74dfc1c	-1.2277651e-05
167	0x383eecf0	4.5520195e-05
168	0xb88391d3	-6.273729e-05
169	0x377834e2	1.4794265e-05
170	0xb874b260	-5.8340258e-05
171	0xb58d8b3d	-1.0545842e-06
172	0xb8820de6	-6.201472e-05
173	0xb6acf89d	-5.154942e-06
174	0xb8633322	-5.416864e-05
175	0xb6dc6dbc	-6.5692857e-06
176	0x383b81fd	4.4705335e-05
177	0x381f0f4c	3.79228e-05
178	0xb86a1a2e	-5.581433e-05
179	0xb72209b4	-9.658212e-06
180	0x38910452	6.9149435e-05
181	0x3866d724	5.503664e-05
182	0x37adab6c	2.0703032e-05
183	0x37ca7236	2.413346e-05
184	0x3613b07d	2.2007437e-06
185	0x38973ce6	7.211584e-05
186	0x37334507	1.0685303e-05
187	0x36c4f098	5.869264e-06
188	0x37da39be	2.6014513e-05
189	0x38911108	6.917311e-05
190	0xb891c4de	-6.950808e-05
191	0x385df11a	5.291505e-05
192	0x386b1c74	5.6054865e-05
193	0x3866a1b8	5.4986886e-05
194	0x376c76e2	1.4094376e-05
195	0x382210b5	3.863937e-05
196	0xb7305fd6	-1.0512731e-05
197	0xb84e7b2c	-4.922894e-05
198	0x3860c523	5.358936e-05
199	0x37f736d6	2.947023e-05
200	0xb7861637	-1.598439e-05
201	0x38753abf	5.8467263e-05
202	0x372f8d0e	1.0463655e-05
203	0x38686a0a	5.5411867e-05
204	0x37c617c8	2.3614513e-05
205	0xb77f4ed2	-1.5217536e-05
206	0xb80191ad	-3.0891668e-05
207	0xb4a23042	-3.0209964e-07
208	0xb7a77f52	-1.996724e-05
209	0xb80c8449	-3.35018e-05
210	0xb87b5319	-5.9920454e-05
211	0xb8528488	-5.019133e-05
212	0xb75b0f10	-1.3056924e-05
213	0xb8011b85	-3.0781626e-05
214	0x3828ae02	4.021638e-05
215	0xb889a684	-6.563685e-05
216	0xb8b0bfb8	-8.4280444e-05
217	0x388e360c	6.781155e-05
218	0xb8a24f9c	-7.7395904e-05
219	0xb79575a0	-1.7816958e-05
220	0x38a6c222	7.951657e-05
221	0xb848dc74	-4.788903e-05
222	0x382a0d2b	4.0543422e-05
223	0x3895a4f2	7.135597e-05
224	0xb82e3660	-4.1535473e-05
225	0xb81fbf1e	-3.8086546e-05
226	0x37b13687	2.1125436e-05
227	0x37c263a4	2.3173001e-05
228	0x388b9b7c	6.656998e-05
229	0x3628b7f9	2.5141037e-06
230	0x383acd1e	4.4536886e-05
231	0xb83d8f76	-4.519472e-05
232	0x3874513e	5.8249796e-05
233	0x3837ba76	4.3804255e-05
234	0x37cb98de	2.427067e-05
235	0x385450ae	5.0619878e-05
236	0x383875d4	4.3978755e-05
237	0x387040d0	5.728082e-05
238	0x362e69ea	2.598967e-06
239	0x38888440	6.509619e-05
240	0xb7aaa1d0	-2.0340929e-05
241	0x380656d4	3.2028955e-05
242	0xb7e2e2c6	-2.7046899e-05
243	0xb898e134	-7.289872e-05
244	0x378cb396	1.6772927e-05
245	0xb81149cb	-3.463942e-05
246	0xb7c66e72	-2.365487e-05
247	0x3605d104	1.9940207e-06
248	0x387c0833	6.0089118e-05
249	0xb775603c	-1.4625544e-05
250	0xb7958d04	-1.782785e-05
251	0x389e7b70	7.557019e-05
252	0xb841f24c	-4.6240442e-05
253	0x381db0a0	3.759621e-05
254	0xb71b550e	-9.258523e-06
255	0x37a44db4	1.9586507e-05

exp_avg_sq f4 [11, 128]
0	0x3281cb61	1.5110063e-08
1	0x339d94f4	7.3379766e-08
2	0x33d97668	1.0126388e-07
3	0x320697b8	7.834323e-09
4	0x3383163d	6.104208e-08
5	0x33691223	5.4266035e-08
6	0x3300eafa	3.0016032e-08
7	0x33ae7465	8.1236784e-08
8	0x32d4ea50	2.4786601e-08
9	0x33311e63	4.123866e-08
10	0x33803c1d	5.971399e-08
11	0x33015944	3.011634e-08
12	0x320af7a6	8.088966e-09
13	0x33a37a9f	7.6125836e-08
14	0x339297a2	6.8262366e-08
15	0x33ee29b0	1.10903216e-07
16	0x333fc101	4.464619e-08
17	0x2e178207	3.4448912e-11
18	0x31cb34b8	5.914071e-09
19	0x30d4cfae	1.5484056e-09
20	0x336b69e8	5.4811522e-08
21	0x31d2efd3	6.1390693e-09
22	0x339d1913	7.315443e-08
23	0x2ecf34ba	9.422636e-11
24	0x2ff600d6	4.4747733e-10
25	0x342043f2	1.492588e-07
26	0x330da150	3.2975834e-08
27	0x338c7060	6.539699e-08
28	0x3257772e	1.2541745e-08
29	0x31062d7f	1.9525428e-09
30	0x2e226cc8	3.6931153e-11
31	0x2e0abbeb	3.1544472e-11
32	0x33488b24	4.6692676e-08
33	0x33361120	4.2390752e-08
34	0x3348f54d	4.678923e-08
35	0x31225418	2.3621904e-09
36	0x30dbc661	1.599073e-09
37	0x339c8c2b	7.2898125e-08
38	0x30aa0220	1.2369732e-09
39	0x3303c1b7	3.0676997e-08
40	0x33b8ba4d	8.6020556e-08
41	0x31302243	2.5630846e-09
42	0x33770a22	5.7518385e-08
43	0x308524d1	9.687487e-10
44	0x33a827e9	7.830369e-08
45	0x31359a0c	2.6426532e-09
46	0x335ba0a3	5.113601e-08
47	0x2f469f89	1.8064673e-10
48	0x32b7f1fe	2.141405e-08
49	0x329531b0	1.7368478e-08
50	0x334b2149	4.7294893e-08
51	0x30cd40c3	1.493412e-09
52	0x33a53dc4	7.694646e-08
53	0x336be678	5.492481e-08
54	0x30de752b	1.6185927e-09
55	0x325d451b	1.2879606e-08
56	0x2f810f3f	2.3475796e-10
57	0x33b7e5cd	8.563402e-08
58	0x314be55a	2.967076e-09
59	0x3036d10c	6.650829e-10
60	0x32b1598c	2.0646233e-08
61	0x33ab118f	7.966002e-08
62	0x33899f1c	6.4085015e-08
63	0x33467fb5	4.6216616e-08
64	0x33243288	3.8230183e-08
65	0x336d46da	5.52453e-08
66	0x3231e6d6	1.0355242e-08
67	0x3302f9b0	3.0495073e-08
68	0x3100a3d3	1.8719575e-09
69	0x32db5b36	2.5536433e-08
70	0x336b39b5	5.4767685e-08
71	0x323e372e	1.1072002e-08
72	0x30722992	8.809816e-10
73	0x3386a5a6	6.2699925e-08
74	0x32577dc4	1.2543243e-08
75	0x3361c237	5.2563532e-08
76	0x311f1d78	2.3154296e-09
77	0x31b13683	5.1575753e-09
78	0x320bbabc	8.133323e-09
79	0x30c555ea	1.4358055e-09
80	0x3204cf80	7.730591e-09
81	0x32be421c	2.2148974e-08
82	0x338c104d	6.522223e-08
83	0x334f8336	4.831528e-08
84	0x31d245ff	6.119762e-09
85	0x32a68e7c	1.9389738e-08
86	0x32d1d9d1	2.4429854e-08
87	0x3390344b	6.7150346e-08
88	0x33dd6fd0	1.0311453e-07
89	0x3394866c	6.916238e-08
90	0x33cf6323	9.6572215e-08
91	0x31ae7eb3	5.0784705e-09
92	0x33a715f5	7.7805375e-08
93	0x336b2bd9	5.475508e-08
94	0x32d1885b	2.439281e-08
95	0x3392ebfb	6.8415794e-08
96	0x330369cc	3.0597036e-08
97	0x32962c17	1.7482348e-08
98	0x32007509	7.477191e-09
99	0x328a8fb2	1.613066e-08
100	0x3363b054	5.3012926e-08
101	0x2f0dddd9	1.2902691e-10
102	0x32f4b464	2.848737e-08
103	0x32c3e41a	2.2804716e-08
104	0x3355cb67	4.977792e-08
105	0x334f45c6	4.8259402e-08
106	0x3215ce8f	8.7199075e-09
107	0x332260cd	3.7806604e-08
108	0x33166917	3.5020175e-08
109	0x33057258	3.107047e-08
110	0x314f38c5	3.0154734e-09
111	0x339e6d68	7.377349e-08
112	0x2fe529f4	4.1684667e-10
113	0x32e441b8	2.6572579e-08
114	0x31c547c7	5.7416147e-09
115	0x33d23557	9.7885895e-08
116	0x31962fbc	4.3710013e-09
117	0x33169a6b	3.506504e-08
118	0x31c0c9dd	5.6108846e-09
119	0x2f45c185	1.7985798e-10
120	0x3381a3b0	6.036805e-08
121	0x30c49e85	1.4305931e-09
122	0x30073218	4.91839e-10
123	0x33c402b2	9.1274515e-08
124	0x334f937a	4.8330072e-08
125	0x32db72c4	2.5547145e-08
126	0x2e7f4752	5.8043632e-11
127	0x3250b68b	1.2148699e-08
128	0x340a9b7c	1.2908816e-07
129	0x34db4cf6	4.0847925e-07
130	0x351156dc	5.4143106e-07
131	0x33ff9e99	1.19032116e-07
132	0x34c04ce1	3.5818724e-07
133	0x34f2fcd7	4.5259978e-07
134	0x349c6812	2.9132985e-07
135	0x3512f305	5.474288e-07
136	0x34a4834f	3.064292e-07
137	0x34945826	2.7631285e-07
138	0x34a58de6	3.083689e-07
139	0x3452bd86	1.9626722e-07
140	0x33bb6b3e	8.727373e-08
141	0x34de0f0c	4.136167e-07
142	0x352bec6a	6.404649e-07
143	0x352d392c	6.453072e-07
144	0x34e2b2b3	4.22258e-07
145	0x32018170	7.538219e-09
146	0x3318960e	3.5526732e-08
147	0x30941616	1.0774694e-09
148	0x3505d5c4	4.985743e-07
149	0x32c17767	2.2522455e-08
150	0x3529ab3e	6.3206596e-07
151	0x325a6a9b	1.2713509e-08
152	0x31f3e965	7.0987647e-09
153	0x353897c5	6.8766195e-07
154	0x344503cc	1.8348436e-07
155	0x34a1b867	3.0122757e-07
156	0x335ce637	5.143212e-08
157	0x33a5b75e	7.7167655e-08
158	0x313e7463	2.7714797e-09
159	0x331a51e0	3.5930384e-08
160	0x34a342b4	3.040965e-07
161	0x344d2bb4	1.9108012e-07
162	0x34bc7603	3.5103594e-07
163	0x312ca7e7	2.5124736e-09
164	0x321fdbab	9.304965e-09
165	0x34e2d92b	4.225379e-07
166	0x3243db8b	1.1400412e-08
167	0x34600221	2.08624e-07
168	0x34dff04e	4.1711831e-07
169	0x329f3e8e	1.8538483e-08
170	0x34b3c698	3.3485844e-07
171	0x31a70a5d	4.861518e-09
172	0x34e57c9a	4.2745233e-07
173	0x314d8227	2.990541e-09
174	0x34a0cefa	2.9952918e-07
175	0x322e2ce3	1.0138339e-08
176	0x345b11e8	2.0402479e-07
177	0x34532714	1.9665123e-07
178	0x34b5348d	3.3752113e-07
179	0x32807bee	1.4957518e-08
180	0x35091cb5	5.107825e-07
181	0x34a7dcd1	3.126684e-07
182	0x33441277	4.56516e-08
183	0x339fc5ff	7.44003e-08
184	0x308c9758	1.0229355e-09
185	0x3517f2b2	5.660505e-07
186	0x32516e8c	1.2190537e-08
187	0x30d8b8f3	1.5768634e-09
188	0x338b3a01	6.483243e-08
189	0x350d0b6e	5.2543226e-07
190	0x35109b85	5.387049e-07
191	0x3498273a	2.8340747e-07
192	0x34b744a3	3.4136346e-07
193	0x34a451ae	3.060681e-07
194	0x32300cf6	1.0247495e-08
195	0x3410662b	1.3448214e-07
196	0x31c883ec	5.835764e-09
197	0x34924702	2.7246284e-07
198	0x34964684	2.7990984e-07
199	0x3427be63	1.5622349e-07
200	0x32af3f3a	2.0401433e-08
201	0x34c041e3	3.5810726e-07
202	0x31d820a8	6.29014e-09
203	0x34ad3fe0	3.2270236e-07
204	0x3385a473	6.223208e-08
205	0x333a35f6	4.3355577e-08
206	0x33e7b1cb	1.0789116e-07
207	0x2f3df634	1.7276919e-10
208	0x33789bfd	5.788387e-08
209	0x33e64636	1.0722981e-07
210	0x34d1dddc	3.9090708e-07
211	0x3484d695	2.4743045e-07
212	0x3286e5b1	1.5704105e-08
213	0x33b4b67c	8.415097e-08
214	0x344e5abf	1.9218258e-07
215	0x34f9e38d	4.654543e-07
216	0x3554c3e0	7.926119e-07
217	0x3506c1b1	5.020075e-07
218	0x3533b2bb	6.6942783e-07
219	0x32f65fa4	2.8681661e-08
220	0x35410981	7.191193e-07
221	0x34c36223	3.6392984e-07
222	0x3437fe4f	1.713572e-07
223	0x351ef316	5.9213323e-07
224	0x342d3322	1.6130483e-07
225	0x34364540	1.6975264e-07
226	0x335906dd	5.0530492e-08
227	0x33711fb6	5.6141026e-08
228	0x34f875db	4.627935e-07
229	0x30a4fab4	1.2003825e-09
230	0x34439b33	1.8217251e-07
231	0x345b17a4	2.0404565e-07
232	0x34c4da4e	3.6666682e-07
233	0x344f1ee8	1.9289621e-07
234	0x33689946	5.415611e-08
235	0x348e50b6	2.6508286e-07
236	0x34451061	1.8353013e-07
237	0x34c86ee3	3.7333584e-07
238	0x313e093a	2.7653884e-09
239	0x34f00da5	4.471341e-07
240	0x33308704	4.110099e-08
241	0x33d06f47	9.705996e-08
242	0x33a92ce3	7.8778406e-08
243	0x351bea67	5.80831e-07
244	0x3321c82e	3.7667796e-08
245	0x33d6dfe8	1.000588e-07
246	0x33672a01	5.382208e-08
247	0x2fedba68	4.3242498e-10
248	0x34ce33d9	3.8408214e-07
249	0x327d5648	1.4746156e-08
250	0x3315af9c	3.485148e-08
251	0x352b6b2f	6.3858437e-07
252	0x34610fda	2.0960525e-07
253	0x340800b7	1.2666247e-07
254	0x321be738	9.0747605e-09
255	0x3319e6c9	3.5832986e-08

exp_avg f4 [64, 128]
0	0x37a58bc4	1.9734616e-05
1	0x3779d772	1.4891719e-05
2	0xb5c81191	-1.4906274e-06
3	0x36c4efbe	5.869165e-06
4	0xb79ff1bf	-1.9066849e-05
5	0xb6db4d72	-6.5357244e-06
6	0xb73cab54	-1.1245564e-05
7	0xb77b85a8	-1.4991885e-05
8	0x3674f21e	3.6499764e-06
9	0xb791acb6	-1.7365772e-05
10	0x37902a94	1.7185965e-05
11	0xb78552b8	-1.5893354e-05
12	0xb6a8e158	-5.0330236e-06
13	0xb74de09c	-1.2271248e-05
14	0xb7108fe3	-8.61657e-06
15	0x36f7b5c7	7.3823353e-06
16	0xb641e195	-2.8890547e-06
17	0x364f1429	3.0857138e-06
18	0xb5f25ae6	-1.805686e-06
19	0xb6ba8c65	-5.559576e-06
20	0xb70aa20e	-8.263172e-06
21	0x37036c00	7.833354e-06
22	0xb778668e	-1.480583e-05
23	0xb6961013	-4.4722196e-06
24	0x3710e5fa	8.636614e-06
25	0x35ebee63	1.7578244e-06
26	0x378e1381	1.6936801e-05
27	0xb7750284	-1.4603724e-05
28	0xb676f91e	-3.6801862e-06
29	0xb70558cb	-7.9480915e-06
30	0x366b00af	3.5018127e-06
31	0x36bb127f	5.5751875e-06
32	0x36cdfb06	6.138699e-06
33	0xb738be92	-1.1011625e-05
34	0xb6e71db6	-6.8877953e-06
35	0xb6c67af4	-5.9151735e-06
36	0x36c9a803	6.009826e-06
37	0xb7599742	-1.2969425e-05
38	0x368ee4a3	4.2585466e-06
39	0xb7a3d044	-1.9528095e-05
40	0x371f0bb2	9.479862e-06
41	0x369a3245	4.59541e-06
42	0x36004877	1.9115666e-06
43	0x37424ee2	1.1581667e-05
44	0x36e537fd	6.8312497e-06
45	0x346d71bc	2.2113721e-07
46	0x37c8f956	2.3957964e-05
47	0xb41dc96c	-1.4695041e-07
48	0xb7877a30	-1.6150152e-05
49	0xb6695446	-3.476876e-06
50	0x36bb31d6	5.578836e-06
51	0xb5696458	-8.6945283e-07
52	0xb7b9a26b	-2.212935e-05
53	0xb78d3876	-1.6834801e-05
54	0xb5ed8801	-1.7697458e-06
55	0xb691d985	-4.3466594e-06
56	0x3685982a	3.981423e-06
57	0xb7a619b3	-1.980071e-05
58	0xb42dcf84	-1.6187374e-07
59	0xb6848277	-3.9490947e-06
60	0xb7342b78	-1.0738957e-05
61	0xb7a7ec6d	-2.0018046e-05
62	0x36515262	3.119138e-06
63	0xb7367424	-1.0875086e-05
64	0xb76e86d4	-1.4217298e-05
65	0xb7f1dc0e	-2.883191e-05
66	0xb72dd4ae	-1.0361122e-05
67	0xb7b61122	-2.1704069e-05
68	0x36cc820b	6.0948128e-06
69	0x3677bd75	3.6916147e-06
70	0xb78403e2	-1.5737434e-05
71	0x36c1d0f4	5.7761736e-06
72	0x36e4277a	6.799525e-06
73	0xb75cfcba	-1.3171864e-05
74	0xb6747b9e	-3.6430788e-06
75	0xb79ec7d4	-1.892812e-05
76	0xb48b9068	-2.5995837e-07
77	0xb68dd8ec	-4.2273805e-06
78	0x34ff6108	4.756805e-07
79	0x37123dc7	8.716662e-06
80	0xb60f5a36	-2.136117e-06
81	0x36dd8c5e	6.602654e-06
82	0x3795968f	1.7832293e-05
83	0x3736f70f	1.0905568e-05
84	0x365b9f47	3.2726255e-06
85	0x375f323d	1.3303533e-05
86	0x34ab78e0	3.193918e-07
87	0x3784b3d1	1.581936e-05
88	0x37983422	1.8144088e-05
89	0xb6fbf220	-7.50857e-06
90	0x37958a6e	1.7826645e-05
91	0x3605f90b	1.9963506e-06
92	0xb6bd98c0	-5.6504214e-06
93	0xb64113b1	-2.8770703e-06
94	0xb6203fcd	-2.3878995e-06
95	0xb733fbd7	-1.0727867e-05
96	0x378b345a	1.659447e-05
97	0xb596534e	-1.1200116e-06
98	0xb6a4ec76	-4.9151085e-06
99	0x3691aa8e	4.341192e-06
100	0xb72de93c	-1.0365908e-05
101	0x35fd4ef8	1.8872952e-06
102	0xb7347ca1	-1.07578535e-05
103	0x37311143	1.0554041e-05
104	0xb7a2c23e	-1.9402356e-05
105	0xb7096c95	-8.191118e-06
106	0xb72653e0	-9.9139e-06
107	0xb7b0b637	-2.1065685e-05
108	0xb7beee22	-2.2760654e-05
109	0xb55a89e4	-8.1411986e-07
110	0x36298846	2.5262284e-06
111	0xb725bfae	-9.879395e-06
112	0x363de8c8	2.8298691e-06
113	0xb6fef260	-7.598006e-06
114	0x36269ad6	2.4826054e-06
115	0x36d6384a	6.38425e-06
116	0xb6479096	-2.973747e-06
117	0x36cdbaa2	6.131203e-06
118	0x372da4b4	1.03499515e-05
119	0xb57ac49e	-9.3418373e-07
120	0xb75b60f6	-1.3075993e-05
121	0x36ef7f58	7.13758e-06
122	0x362060ba	2.389816e-06
123	0xb7516be8	-1.2482495e-05
124	0x361edcff	2.3672471e-06
125	0xb76c165b	-1.4071901e-05
126	0xb525de55	-6.1790826e-07
127	0xb500705c	-4.784722e-07
128	0xb96596ce	-0.00021895321
129	0xb92d51bf	-0.00016529018
130	0x343ead40	1.7758157e-07
131	0xb89744c4	-7.21305e-05
132	0x3929a158	0.00016177201
133	0x38b08b4f	8.418282e-05
134	0x38b0216c	8.398559e-05
135	0x391286bd	0.00013973839
136	0xb8c7abe2	-9.521075e-05
137	0x392899c8	0.00016079016
138	0xb90716b5	-0.00012883062
139	0x393bafa2	0.00017899138
140	0x38fe2fd3	0.00012120572
141	0x38cbb91a	9.714272e-05
142	0x38dfe10e	0.00010675388
143	0xb87829c1	-5.9166694e-05
144	0xb585c4e4	-9.966575e-07
145	0xb7c05556	-2.2927921e-05
146	0xb64dfe96	-3.069557e-06
147	0x3889fdb9	6.5799286e-05
148	0x38b08551	8.417166e-05
149	0xb87cd087	-6.0275688e-05
150	0x391f2116	0.00015175747
151	0x379accdb	1.8453624e-05
152	0xb8b8f110	-8.818705e-05
153	0xb6be040f	-5.6629137e-06
154	0xb946b32a	-0.00018949495
155	0x38fc1864	0.000120208395
156	0x37ff26f8	3.0416515e-05
157	0x38f1f9d1	0.000115383074
158	0xb7cc7780	-2.4374342e-05
159	0xb6986970	-4.5422275e-06
160	0xb876b2da	-5.881754e-05
161	0x38bc0eea	8.9673165e-05
162	0x38f66cdd	0.000117504715
163	0x387906aa	5.9372433e-05
164	0xb7d317ca	-2.5164238e-05
165	0x3909da28	0.00013146608
166	0xb7f17864	-2.87855e-05
167	0x3950c9e0	0.0001991163
168	0xb8c67756	-9.463604e-05
169	0xb753e90c	-1.26308405e-05
170	0xb7e9975e	-2.784625e-05
171	0xb9032576	-0.00012507089
172	0xb7c05eb5	-2.2932285e-05
173	0x335a2d00	5.0798008e-08
174	0xb97706b4	-0.00023558253
175	0x37614020	1.3425975e-05
176	0x3927e364	0.0001601107
177	0xb67cbb8c	-3.7660093e-06
178	0xb8969c30	-7.1816496e-05
179	0xb81adbf4	-3.692131e-05
180	0x39597669	0.00020738844
181	0x39125794	0.0001395627
182	0xb7675976	-1.3789502e-05
183	0x37622c76	1.3481002e-05
184	0xb689ae88	-4.1032363e-06
185	0x393a05ca	0.00017740499
186	0x37aa0b3e	2.0270814e-05
187	0xb60d10b8	-2.102037e-06
188	0x38827e69	6.222429e-05
189	0x395fdd81	0.00021349454
190	0xb88bcac4	-6.6658045e-05
191	0x3916d204	0.00014383352
192	0x39060572	0.00012781264
193	0x39884c8e	0.0002599698
194	0x3887f38a	6.482664e-05
195	0x3966d567	0.00022014008
196	0xb854a2ce	-5.0696362e-05
197	0xb86bf17e	-5.6253273e-05
198	0x38f51bfb	0.00011687722
199	0xb825746b	-3.944749e-05
200	0xb8b39572	-8.5632215e-05
201	0x390b2563	0.0001327
202	0x37a29101	1.9379428e-05
203	0x39479970	0.00019035279
204	0x38099a62	3.2807126e-05
205	0x36c7a3b3	5.9497193e-06
206	0xb609a6e8	-2.0511743e-06
207	0xb8a6cfe6	-7.954221e-05
208	0x369f2400	4.74276e-06
209	0xb864061a	-5.436512e-05
210	0xb913804a	-0.00014066804
211	0xb926b11f	-0.00015896976
212	0xb7337ed8	-1.06987645e-05
213	0xb9077400	-0.00012917817
214	0x35e217e0	1.6845261e-06
215	0xb952a6f2	-0.00020089353
216	0xb95aae7d	-0.00020855102
217	0x38bb3e2a	8.928434e-05
218	0xb9344836	-0.00017193038
219	0x376db98f	1.41695045e-05
220	0x3888fbaa	6.5318614e-05
221	0x387032dc	5.7267825e-05
222	0xb18b6000	-4.0563464e-09
223	0x38fdaece	0.0001209654
224	0xb937970c	-0.0001750851
225	0xb71e7132	-9.443889e-06
226	0x3838bb48	4.4043438e-05
227	0xb81c9a32	-3.7336904e-05
228	0x39000e46	0.00012212349
229	0xb816dc1e	-3.5967787e-05
230	0x3904ce28	0.000126653
231	0xb8be4536	-9.0727975e-05
232	0x396fb3b4	0.00022859761
233	0x388d79d0	6.746093e-05
234	0x38fee9eb	0.000121552344
235	0x39653873	0.00021860171
236	0x394c4348	0.0001948002
237	0x389ea9ec	7.5656775e-05
238	0xb82eada2	-4.164654e-05
239	0x388faa29	6.850466e-05
240	0xb82a09ef	-4.054041e-05
241	0x386d230e	5.653785e-05
242	0x36ae5172	5.1950856e-06
243	0xb83ef2a9	-4.5525525e-05
244	0x3808c038	3.2603944e-05
245	0xb8091d88	-3.269085e-05
246	0xb8abe5ab	-8.1966944e-05
247	0xb4c86100	-3.732348e-07
248	0x38facf75	0.00011959571
249	0xb8818b0a	-6.1770974e-05
250	0xb87058b7	-5.730308e-05
251	0x3907e53a	0.00012959997
252	0xb845e942	-4.71857e-05
253	0x391ad413	0.00014765588
254	0xb74bf88f	-1.2157615e-05
255	0x378e1197	1.693591e-05

exp_avg_sq f4 [64, 128]
0	0x331ae4de	3.6064073e-08
1	0x3315c7ed	3.4873597e-08
2	0x2f6dd494	2.1630547e-10
3	0x30a5564e	1.2029859e-09
4	0x32eb3984	2.7383756e-08
5	0x31296202	2.4648448e-09
6	0x3204a054	7.719866e-09
7	0x32c78141	2.3225427e-08
8	0x30d3e922	1.5418531e-09
9	0x32b48615	2.1015731e-08
10	0x32d47c79	2.4736652e-08
11	0x32faa977	2.9180894e-08
12	0x31a440e4	4.7804054e-09
13	0x32fc19b3	2.9348348e-08
14	0x31e70dfe	6.7245756e-09
15	0x30c9471d	1.4644886e-09
16	0x31a69f58	4.849351e-09
17	0x312d55e3	2.5223634e-09
18	0x30e4b17e	1.663963e-09
19	0x316cc2e6	3.4453307e-09
20	0x3116f52d	2.196724e-09
21	0x31185641	2.216794e-09
22	0x328648ac	1.56327e-08
23	0x3161587a	3.2792102e-09
24	0x31b81732	5.357742e-09
25	0x304876c8	7.2928374e-10
26	0x329bf7e1	1.8157097e-08
27	0x32155ba1	8.6937755e-09
28	0x3198e825	4.450174e-09
29	0x311bfae3	2.2698081e-09
30	0x30031494	4.7686766e-10
31	0x31b6498e	5.3052593e-09
32	0x31a1c892	4.708519e-09
33	0x320fe4f4	8.375753e-09
34	0x32233d53	9.501792e-09
35	0x306d6df8	8.637637e-10
36	0x30f019b0	1.7469599e-09
37	0x32f33569	2.8313211e-08
38	0x31d6883b	6.2437073e-09
39	0x334dc5a2	4.7910028e-08
40	0x32864a55	1.5633455e-08
41	0x30745761	8.8890856e-10
42	0x2f4b4461	1.8487036e-10
43	0x32a921fd	1.9689645e-08
44	0x31ff2775	7.4259625e-09
45	0x309ba380	1.1324204e-09
46	0x3334058a	4.1914554e-08
47	0x30b93914	1.3476744e-09
48	0x3333be6d	4.1849876e-08
49	0x30f9b6c0	1.8169075e-09
50	0x313dcb9a	2.7618854e-09
51	0x3220cd47	9.3599e-09
52	0x331e3ec7	3.6844337e-08
53	0x32802d7e	1.4921849e-08
54	0x30540672	7.713431e-10
55	0x305f451c	8.122514e-10
56	0x3048a11d	7.298853e-10
57	0x3311f3be	3.3982126e-08
58	0x3098afee	1.1109458e-09
59	0x31f7da1f	7.2134436e-09
60	0x31c73470	5.7976237e-09
61	0x33129fc8	3.4138594e-08
62	0x3131e80f	2.58888e-09
63	0x32880717	1.5835708e-08
64	0x3264a0b3	1.33078855e-08
65	0x337d2a22	5.8944472e-08
66	0x32429249	1.1325548e-08
67	0x3351fe34	4.88928e-08
68	0x31bfee86	5.5859486e-09
69	0x30c947a0	1.4645032e-09
70	0x328fa63e	1.672299e-08
71	0x32134f69	8.574582e-09
72	0x316854bf	3.3808616e-09
73	0x32e7c378	2.6980828e-08
74	0x30864ec2	9.772168e-10
75	0x332b8626	3.9936047e-08
76	0x30cf8320	1.50985e-09
77	0x30611106	8.1878715e-10
78	0x30d0dd04	1.5196808e-09
79	0x31588c2c	3.1511815e-09
80	0x30c2b5f0	1.4167068e-09
81	0x312eff6a	2.5465519e-09
82	0x32f2fa89	2.8286438e-08
83	0x326c312b	1.37481875e-08
84	0x3081b15f	9.436397e-10
85	0x32d0a37c	2.4288731e-08
86	0x306d5765	8.6344293e-10
87	0x33241990	3.8207475e-08
88	0x32f84818	2.8903784e-08
89	0x318c06cc	4.075309e-09
90	0x32d0807d	2.4272817e-08
91	0x318f1fea	4.165476e-09
92	0x31491c3d	2.9265401e-09
93	0x30de8f26	1.6193311e-09
94	0x3123be08	2.3827642e-09
95	0x31fb3981	7.311599e-09
96	0x329c344e	1.8184576e-08
97	0x302ad96d	6.215462e-10
98	0x30b55c2a	1.3195678e-09
99	0x2f3f3fb5	1.7393982e-10
100	0x319560c3	4.3474713e-09
101	0x3089835a	1.0005394e-09
102	0x31f62ddb	7.1647555e-09
103	0x31f4cdad	7.1247173e-09
104	0x330fcae3	3.3479306e-08
105	0x3280e072	1.5003227e-08
106	0x319d97f8	4.5865782e-09
107	0x335c782c	5.1332037e-08
108	0x33091f16	3.192607e-08
109	0x31047b25	1.9278528e-09
110	0x308d34a7	1.0274065e-09
111	0x32145434	8.633879e-09
112	0x3099629a	1.1160239e-09
113	0x31c978d7	5.863608e-09
114	0x300a48b9	5.030745e-10
115	0x31edfbc0	6.9262285e-09
116	0x305bef2e	8.001163e-10
117	0x321d774a	9.165726e-09
118	0x30cc49f9	1.4863978e-09
119	0x31107473	2.1020952e-09
120	0x329910c1	1.7819163e-08
121	0x2ff57cfb	4.4654044e-10
122	0x30395f5d	6.743813e-10
123	0x3259f5a0	1.2686911e-08
124	0x31b0367c	5.1284683e-09
125	0x32f61d33	2.8651447e-08
126	0x309d6c62	1.1454058e-09
127	0x30614eb4	8.1966367e-10
128	0x3690bba2	4.3133778e-06
129	0x367f14d5	3.8010087e-06
130	0x3301ca82	3.0219333e-08
131	0x33e016c8	1.0434957e-07
132	0x36182f14	2.2677168e-06
133	0x3503e534	4.913484e-07
134	0x351761c1	5.6394134e-07
135	0x3627acdf	2.4985563e-06
136	0x3550915f	7.769758e-07
137	0x36009b48	1.9163872e-06
138	0x358ed45b	1.0641628e-06
139	0x36408f8a	2.869378e-06
140	0x35f85ee5	1.8505058e-06
141	0x35c9762b	1.5010058e-06
142	0x3585ae54	9.960008e-07
143	0x33a0472a	7.463525e-08
144	0x34bd0197	3.520515e-07
145	0x3489ca6c	2.566552e-07
146	0x3416d57e	1.4047507e-07
147	0x3495c1c9	2.789441e-07
148	0x347f89aa	2.3798808e-07
149	0x33a0890a	7.475508e-08
150	0x3602a2d0	1.946628e-06
151	0x33c4f74f	9.1719464e-08
152	0x34f85ff4	4.6263415e-07
153	0x32c8f97e	2.339652e-08
154	0x361636e0	2.2383683e-06
155	0x34afcb8c	3.274439e-07
156	0x33c17eda	9.010337e-08
157	0x35938ec6	1.0993906e-06
158	0x339602e6	6.9854465e-08
159	0x3426c790	1.5532555e-07
160	0x3528210a	6.2632955e-07
161	0x35640995	8.495056e-07
162	0x35eb895a	1.7548839e-06
163	0x33211e12	3.7513082e-08
164	0x33bd8695	8.825479e-08
165	0x36337b4c	2.6744847e-06
166	0x345941e3	2.023367e-07
167	0x36a85bfc	5.0174986e-06
168	0x3594552e	1.105165e-06
169	0x3325ec53	3.8631992e-08
170	0x32b956cd	2.1576307e-08
171	0x35fc01f6	1.8776034e-06
172	0x3480c52e	2.3985325e-07
173	0x3350ad5e	4.858645e-08
174	0x36801a11	3.817732e-06
175	0x341e19c4	1.472427e-07
176	0x3685c44b	3.9865604e-06
177	0x349a51e8	2.874433e-07
178	0x34fb93cf	4.6859938e-07
179	0x33fcb057	1.17667405e-07
180	0x3639eb98	2.7704282e-06
181	0x358cda29	1.0494306e-06
182	0x33cbf674	9.497754e-08
183	0x343144fb	1.6509505e-07
184	0x33ce197c	9.597258e-08
185	0x361c2f8c	2.3273487e-06
186	0x33868a39	6.265004e-08
187	0x3424c420	1.534504e-07
188	0x343c70eb	1.7549944e-07
189	0x36760ab9	3.6663098e-06
190	0x3569001e	8.6799434e-07
191	0x360515f5	1.9831325e-06
192	0x3595c42b	1.1158457e-06
193	0x3682a66f	3.8936773e-06
194	0x34bdcf6d	3.5354915e-07
195	0x36995335	4.569442e-06
196	0x34a3d167	3.0513476e-07
197	0x33e93bb4	1.0860768e-07
198	0x352c0c58	6.4092956e-07
199	0x353779f3	6.835027e-07
200	0x351861ab	5.676654e-07
201	0x36329cb0	2.661527e-06
202	0x32aec0c6	2.034393e-08
203	0x36892376	4.0870464e-06
204	0x3504f259	4.9526494e-07
205	0x339171e0	6.7728024e-08
206	0x3508fbd4	5.1030406e-07
207	0x34b1f261	3.3145173e-07
208	0x33d75f0f	1.0029009e-07
209	0x3432c505	1.6649217e-07
210	0x36174c64	2.2545219e-06
211	0x35ccd4c4	1.5261107e-06
212	0x335b1058	5.1004776e-08
213	0x36192c6c	2.2824634e-06
214	0x33d0874e	9.7103666e-08
215	0x36a3401f	4.865243e-06
216	0x368915c3	4.0854516e-06
217	0x34ec3210	4.399485e-07
218	0x363507ee	2.6975717e-06
219	0x3458e560	2.0200014e-07
220	0x3490571f	2.688548e-07
221	0x350147f9	4.816098e-07
222	0x33a5655e	7.70185e-08
223	0x35b30b6f	1.3339867e-06
224	0x35cb66d7	1.5154609e-06
225	0x3439f786	1.7319516e-07
226	0x33db63bb	1.0216123e-07
227	0x32a7a202	1.9515031e-08
228	0x353782d0	6.836317e-07
229	0x33d790ee	1.003808e-07
230	0x35526183	7.8372994e-07
231	0x355c5ded	8.2093067e-07
232	0x36a4a3d7	4.9066543e-06
233	0x3599294e	1.141141e-06
234	0x359688d6	1.1215695e-06
235	0x36aa7d3d	5.0809745e-06
236	0x362c4f16	2.5676031e-06
237	0x3546ddc5	7.4083465e-07
238	0x34c93d4e	3.7483773e-07
239	0x34f0a484	4.4823184e-07
240	0x34144276	1.3807752e-07
241	0x3478fe11	2.3189229e-07
242	0x33086a5a	3.1761694e-08
243	0x34cc9dcc	3.8112773e-07
244	0x338b9574	6.499877e-08
245	0x346fe627	2.2342338e-07
246	0x344784f5	1.8581689e-07
247	0x33cad4cf	9.445068e-08
248	0x3605625d	1.98758e-06
249	0x33b800d4	8.568318e-08
250	0x349e5397	2.9490613e-07
251	0x35f69830	1.8372721e-06
252	0x34b26c89	3.3234053e-07
253	0x36109b35	2.1548015e-06
254	0x33c11c5d	8.992422e-08
255	0x338897e6	6.360624e-08

exp_avg f4 [64]
0	0xb7dfeeea	-2.6694925e-05
1	0x398b5084	0.00026572135
2	0x38daa1f4	0.00010425216
3	0x393af872	0.00017830895
4	0x383a9d2e	4.449224e-05
5	0xb7e20916	-2.694553e-05
6	0x39074dee	0.00012903634
7	0xb81c510a	-3.7268772e-05
8	0xb8b0f42c	-8.4378145e-05
9	0xb7737e82	-1.4513384e-05
10	0xb8a19974	-7.705661e-05
11	0xb91230cb	-0.00013941822
12	0xba777b34	-0.0009440661
13	0x390700af	0.00012874858
14	0x387c6ce6	6.01829e-05
15	0x39173aba	0.0001442236
16	0xb7d9d618	-2.5968111e-05
17	0xb8b7c33a	-8.762484e-05
18	0x36bb18d0	5.575923e-06
19	0x3816a520	3.591657e-05
20	0x389a1151	7.346518e-05
21	0x399951cb	0.00029243375
22	0xb89941da	-7.307874e-05
23	0x38339596	4.281624e-05
24	0xb8cd2a0f	-9.782996e-05
25	0xb8c73f36	-9.5008334e-05
26	0xb80cc58a	-3.3562574e-05
27	0xb880f6b7	-6.14947e-05
28	0x36146486	2.211223e-06
29	0x38e5fbb0	0.000109664514
30	0x3921c1c2	0.00015426337
31	0x3a069df5	0.0005135232
32	0xb826a63e	-3.973231e-05
33	0xb909f218	-0.00013155525
34	0xb75b1e9f	-1.3060547e-05
35	0x37c3bc5d	2.3333525e-05
36	0x3946d6f7	0.00018962832
37	0xb81d8848	-3.755864e-05
38	0x3985b0b8	0.00025499403
39	0x387e1561	6.057823e-05
40	0xb97a70d6	-0.00023883893
41	0xb8980c40	-7.2502065e-05
42	0xb84d3980	-4.892936e-05
43	0xb9367725	-0.00017401257
44	0x376f29bc	1.4255227e-05
45	0x39036848	0.00012531981
46	0xb81242e3	-3.4871406e-05
47	0x38d7c0ee	0.00010287935
48	0xb75b05f6	-1.3054805e-05
49	0xb881fffc	-6.19888e-05
50	0x38e94ff6	0.000111252
51	0xb73dc9d4	-1.131227e-05
52	0x385ebfb3	5.310746e-05
53	0xb886d5ea	-6.4294625e-05
54	0x390a47bd	0.0001318743
55	0xb776fd6a	-1.4721745e-05
56	0xb81efb2c	-3.7904058e-05
57	0xb9a95fd5	-0.00032305592
58	0x3a01662c	0.0004936184
59	0xb8515ebc	-4.991771e-05
60	0x388edf90	6.8127294e-05
61	0x38a585e8	7.892755e-05
62	0x382056e2	3.822789e-05
63	0xb82c6b60	-4.1107996e-05

exp_avg_sq f4 [64]
0	0x3390740c	6.726631e-08
1	0x36ce289a	6.144005e-06
2	0x3594ecb8	1.1095754e-06
3	0x365a2f06	3.2511903e-06
4	0x3438b68f	1.720275e-07
5	0x33a636ae	7.7399235e-08
6	0x35d59bb8	1.5915057e-06
7	0x341bedba	1.4521984e-07
8	0x3530c2c4	6.584853e-07
9	0x32bf45ca	2.2267063e-08
10	0x351adc5c	5.7690136e-07
11	0x3600160e	1.9086324e-06
12	0x38a91c48	8.063816e-05
13	0x35db2bc4	1.6329509e-06
14	0x34b5f615	3.3892925e-07
15	0x3601e1cd	1.9353931e-06
16	0x334c0c27	4.7508504e-08
17	0x354ef64c	7.709939e-07
18	0x317f2285	3.7127006e-09
19	0x34150dc1	1.388171e-07
20	0x350b964e	5.200026e-07
21	0x370cddba	8.396275e-06
22	0x3514137c	5.516265e-07
23	0x3441dbea	1.805453e-07
24	0x358a45fe	1.0302172e-06
25	0x359452fb	1.105101e-06
26	0x33fe61b5	1.18455695e-07
27	0x34d21711	3.913233e-07
28	0x2ffae7bc	4.5639392e-10
29	0x359f87c7	1.188594e-06
30	0x360f2fd6	2.1336505e-06
31	0x37e4a65e	2.7257189e-05
32	0x343e6677	1.7732405e-07
33	0x35da0123	1.6242597e-06
34	0x329f180b	1.852097e-08
35	0x3359870c	5.0647074e-08
36	0x3662d46d	3.3800272e-06
37	0x341eb64e	1.4781219e-07
38	0x36ce601c	6.150467e-06
39	0x34b823b7	3.4298657e-07
40	0x36b4da51	5.3898334e-06
41	0x35049960	4.939702e-07
42	0x34754b64	2.284483e-07
43	0x36587ec3	3.2260293e-06
44	0x32b8d8d5	2.1519023e-08
45	0x35d9155c	1.6173976e-06
46	0x34058363	1.2434388e-07
47	0x35865c51	1.0010646e-06
48	0x329bc3df	1.8133447e-08
49	0x34d6ad4f	3.9986705e-07
50	0x359f80d8	1.1883922e-06
51	0x326187f7	1.31276385e-08
52	0x34a14e83	3.0045712e-07
53	0x34ee5b88	4.4397552e-07
54	0x35da7174	1.6275285e-06
55	0x32db9a98	2.5565257e-08
56	0x34165d90	1.4003876e-07
57	0x371fb83e	9.520036e-06
58	0x37c1db53	2.3109524e-05
59	0x348cfa59	2.6259184e-07
60	0x35062fde	4.9988546e-07
61	0x3513c0a1	5.504208e-07
62	0x341696d9	1.4024717e-07
63	0x3428cf0e	1.5721545e-07
