Advanced learning for text and graph data/Lab_7_El_Founoun_Zakaria/code/part1/model_lstm.pth.tar (torch, 621731 bytes, 18 tensors)

embedding.weight f4 [11, 128]
000000 80 d1 25 be be 88 e0 bf 62 e7 86 bf 6e a0 6e bf
       -0.16193199 -1.754173 -1.0539362 -0.93213546
000010 08 2d 49 bc b2 91 04 be ed 56 cb 3d 27 f8 5d 3e
       -0.012278803 -0.12946203 0.09928689 0.21676694
000020 c0 58 7b 3f f2 f8 f2 3f eb a8 ea bf 86 50 0f be
       0.98182297 1.8982222 -1.83328 -0.13995561
000030 e2 5a 28 3f ec 12 92 bf ea 42 97 be 90 23 e6 be
       0.65763676 -1.1412024 -0.2954324 -0.44949007
000040 ef 0f 2c 3e 35 55 80 bf ba 83 fc 3e 43 fd 2e c0
       0.16802953 -1.0026003 0.4931925 -2.7342079
000050 ff f0 2c 3f 81 67 86 3f 32 1a 7c 3f 13 91 20 3f
       0.6755523 1.0500337 0.9847747 0.62721366
000060 85 24 bf be fe b2 28 3f 43 59 c4 3e 35 a6 2d 3f
       -0.3733255 0.6589812 0.3834935 0.67831737
000070 71 4b b1 3e 29 88 f2 3d f9 87 db bd 74 3a c5 bf
       0.3462787 0.11842377 -0.10719294 -1.5408463
000080 97 39 87 bf e3 0c 8f be 60 3f f2 3e 14 0d 8a 3e
       -1.056445 -0.2793952 0.47313976 0.26963103
000090 7b 77 a3 bf c6 2e 07 40 66 b9 a4 be f9 13 82 3f
       -1.2770838 2.1122298 -0.32172698 1.0162345
0000a0 1e a2 6f 3f 01 ab 00 40 4a b6 9c bf 99 6e a7 3f
       0.93606746 2.0104373 -1.224313 1.3080627
0000b0 7b 6e 33 bf b0 ca 93 bf aa 07 52 3e 56 0f 02 3f
       -0.70090455 -1.154623 0.20510736 0.5080465
0000c0 24 c8 6c 3f ef 88 76 3f c0 77 00 be 5c 59 82 bf
       0.9249289 0.96302694 -0.12545681 -1.018352
0000d0 89 b1 d3 be 54 6a ea bd b0 1e 92 bf 93 02 cb be
       -0.41346386 -0.11446062 -1.1415615 -0.396504
0000e0 f0 d7 ee 3f 30 ef 4c 3e ab 15 ad bf fa dc 4f 3f
       1.8659649 0.20013118 -1.3522238 0.8119656
0000f0 da 51 c7 3d e4 02 15 bf 65 f7 5d bf a9 06 6a 3f
       0.09732409 -0.58207536 -0.8670562 0.9141641
000100 a7 1e c2 3e 6a 59 2d bf 42 cb 09 3f c1 6f cd bf
       0.3791401 -0.6771456 0.5382577 -1.604973
000110 81 97 3c bf 9d 91 a1 3f 5f 53 b9 bf f7 b6 9d 3e
       -0.73668677 1.2622563 -1.4478568 0.30803654
000120 6c 37 09 bf 33 41 11 3f bf 6c 8b 3f e2 7f be bf
       -0.5360019 0.5674011 1.0892562 -1.4882777
000130 f8 5c 74 3f 06 ad 13 40 fc 8f 10 c0 6e 56 c1 3e
       0.9545436 2.3074355 -2.258788 0.37761253
000140 b0 07 17 bf 4e 62 47 3e d8 73 12 bf 69 1f 51 bf
       -0.58996105 0.19471094 -0.57208014 -0.81688553
000150 42 ce 63 3e 5b 06 22 bc 8e 3e 47 3f bb e3 f9 bc
       0.2224665 -0.009889211 0.77829826 -0.030504098
000160 3e 59 6a bf 9e 8f 34 bf 4e ec 7d bf 28 e5 89 3f
       -0.9154242 -0.7053164 -0.991887 1.0773058
000170 91 86 2e 3f 74 29 13 3e df 62 f7 bc 54 99 dd 3f
       0.6817408 0.14371282 -0.030198513 1.7312417
000180 aa 89 38 3e a1 50 12 3f 06 90 10 3f a4 e4 60 3c
       0.18021265 0.5715428 0.5646976 0.013726387
000190 5d 94 18 bf f6 8b 5f bf 90 88 10 3f 00 30 49 bf
       -0.59601384 -0.8732294 0.5645838 -0.7858887
0001a0 7d 4b f3 3e 53 12 c0 3f 03 05 8d 3f 30 cf 71 3f
       0.4751853 1.5005592 1.1017154 0.9445677
0001b0 78 e3 ae be 1d 93 d1 bd 12 c4 68 3f 50 94 ac 3e
       -0.3415792 -0.10233138 0.9092418 0.33706903
0001c0 5a c5 86 bf 5a b5 87 bf 96 a1 b8 be ed c6 97 bf
       -1.0528977 -1.0602219 -0.3606078 -1.1857582
0001d0 2b 60 1c 40 fe dd 53 c0 64 ea c5 be b4 4d 36 bf
       2.4433696 -3.3104243 -0.38655388 -0.71212316
0001e0 59 b1 c0 3f 69 1f 97 3e 3e 34 da bf c1 54 9f 3e
       1.5054122 0.29516152 -1.7047193 0.3111935
0001f0 f8 0a 9b bf 37 bc 79 3f f5 d3 68 be 09 c1 f3 3d
       -1.2112722 0.9755282 -0.22737105 0.11902053
000200 c7 d1 fd bd 33 f9 c2 bc 45 52 0a be ec c1 fa be
       -0.123935275 -0.023800468 -0.13507946 -0.48976076
000210 8c d3 fd 3e 52 dc 11 3f b4 9a 8e be dc 02 cd be
       0.4957546 0.5697681 -0.27852404 -0.40041244
000220 cf ce e8 3f 15 35 92 bd fa 95 dc 3f 67 1c 4e 3f
       1.8188113 -0.07139031 1.7233269 0.8051209
000230 16 23 9e be 9f 54 29 be f2 ab aa bf 52 d0 52 3d
       -0.30886143 -0.16536187 -1.3333724 0.0514682
000240 f5 2d 5c bd 8a d0 fa bf b8 6c e1 3f 40 de 2d 3f
       -0.053754766 -1.9594891 1.7611303 0.6791725
000250 34 28 9f bf 3c 0e 45 3f f7 23 2a 3f 30 22 09 3f
       -1.2434144 0.76974845 0.6646113 0.5356779
000260 33 5c 48 3f 41 97 de be 8c a1 24 be a0 70 7d 3f
       0.78265685 -0.43474773 -0.1607725 0.9899998
000270 bc 55 52 3f f8 4a 01 bd 64 bb a2 3c 0f 58 73 3e
       0.8216207 -0.031565636 0.019864745 0.2376406
000280 78 16 0a bf 15 a3 2e be 0f a2 a5 bf 64 31 7d 3e
       -0.53940535 -0.17054398 -1.2940081 0.24725872
000290 8a 74 81 bd 82 f5 44 3d 77 fe bc bf 75 d9 18 3e
       -0.06321056 0.048085697 -1.4765157 0.14926703
0002a0 1f 78 5e be 7d 43 ac 3d 91 76 e1 3e 60 1d 3b bf
       -0.2172551 0.0841131 0.4403577 -0.730917
0002b0 4c 6d 53 3e 20 61 ca bf 93 d8 ff 3f c0 a2 6d bf
       0.20647162 -1.581089 1.9987968 -0.9282646
0002c0 24 ec 7e 3e 62 57 a9 bf e6 07 b8 bf dc fa 08 bf
       0.24894768 -1.3229792 -1.437741 -0.5350778
0002d0 f0 c9 be 3e 62 c6 1d be 4a 73 bf bf 9b 6a c1 3c
       0.3726344 -0.15407708 -1.4957058 0.023610404
0002e0 61 94 16 3f 67 77 c4 3e 51 85 b1 3e 1c e2 7a 3e
       0.5882016 0.38372347 0.34672025 0.24500316
0002f0 b3 d0 07 bf e9 f1 1b 3f 8b e2 b5 bf 28 02 db be
       -0.53052825 0.60916 -1.420976 -0.42775083
000300 f8 5d 7a 3e 24 ba 0a be 9b 1a 70 be e7 77 bf be
       0.24449909 -0.1354757 -0.23447649 -0.37396166
000310 32 75 9f bf b7 35 99 bf 86 6a 9c be a1 2f a5 bf
       -1.245764 -1.1969517 -0.3055002 -1.290516
000320 38 99 82 be cc d9 ae 3e 08 7f 3f 3f 13 9a 1f bf
       -0.25507522 0.3415054 0.7480321 -0.62344474
000330 9a dd a8 bf 13 82 2a be 70 16 66 be d5 0f f4 be
       -1.3192627 -0.16651182 -0.22469497 -0.4766833
000340 71 6e 13 3e 88 12 43 bf 4c 39 46 bf 43 ed 54 3d
       0.14397599 -0.7620015 -0.7743118 0.051984083
000350 9f c6 0a 3f ee 7a cc 3e 73 4d 08 3e ee b4 27 bf
       0.5420932 0.39937538 0.13310795 -0.6551045
000360 c4 d4 02 bf 66 b1 35 3f 2b d5 04 bf f3 1d 1a bf
       -0.51105905 0.70973814 -0.5188777 -0.6020195
000370 81 57 59 3f df 5d b7 3e b0 31 d8 3f 93 12 14 3f
       0.84899145 0.35813805 1.6890163 0.5784084
000380 75 b5 f5 bf a9 2b e9 bd ac 04 e1 3e 2c 30 9a 3e
       -1.9196001 -0.11385281 0.43948877 0.30114877
000390 85 be e4 3e a5 a0 a5 bf 51 23 50 3d 20 48 f2 3e
       0.44676605 -1.293965 0.05081493 0.47320652
0003a0 b0 f9 55 3f 3d b9 9b be 39 4e c9 be 20 7c cf be
       0.8358412 -0.30414763 -0.39317492 -0.40524387
0003b0 79 23 21 3d 23 33 8c bf a1 62 07 40 ac 72 ca be
       0.03934047 -1.0953106 2.1153948 -0.39540613
0003c0 e1 f1 00 bf 07 b2 da 3f c4 aa 1a 3f c2 eb 9a bf
       -0.5036908 1.708558 0.6041682 -1.2103198
0003d0 e0 d3 3f bf 42 dd 82 3f 83 35 a3 be f0 14 ee bf
       -0.7493267 1.0223773 -0.31876764 -1.860014
0003e0 57 e1 31 3f 39 cd 53 be fc 6c 14 c0 35 83 ef be
       0.69484466 -0.20683755 -2.3191519 -0.4677979
0003f0 a2 05 72 bf 0e b2 03 bf 7a 19 bf bf 31 23 6f 3f
       -0.94539845 -0.51443565 -1.492965 0.9341307

lstm.weight_ih_l0 f4 [256, 128]
000000 51 fa 0e 3d c1 81 da bd 13 72 e9 bd d9 8c 93 3e
       0.03490669 -0.1066928 -0.11398711 0.28818396
000010 34 29 a1 3d 13 46 c8 bd 8a c5 2b 3d 8b 07 4d 3e
       0.07869187 -0.097789906 0.041936435 0.20022409
000020 17 1f e5 bc 3d 40 d7 3d 86 d5 32 be a5 78 c1 bd
       -0.027968926 0.10510299 -0.17464265 -0.09446839
000030 9c 40 79 be b6 4c d7 3d 71 8d 86 3e e0 c0 53 be
       -0.24341053 0.10512678 0.26279786 -0.20679045
000040 2f a1 10 3d 96 28 ac 3c 12 b4 cd bc 4d 18 3a 3d
       0.035309967 0.021015447 -0.025110278 0.04543333
000050 97 2c 3b 3e 26 c2 d9 bd 85 ba ae 3d f4 03 fa bd
       0.18278728 -0.10632734 0.085316695 -0.12207785
000060 50 33 8f 3b 5f 06 a8 bd 92 2b 08 3d ac 88 67 be
       0.0043701306 -0.0820434 0.033244677 -0.2261073
000070 92 87 2a be d4 7b c2 bb cb 45 41 bd 23 e7 6a 3d
       -0.16653278 -0.0059351716 -0.0471857 0.057349335
000080 52 de b1 3b 40 a5 25 3d 76 7e b2 3c db a1 ea 3d
       0.005428114 0.040440798 0.021788817 0.11456653
000090 81 64 0c 3d e9 35 c4 bd e0 16 a7 3d c5 0f 51 bc
       0.034275535 -0.09580595 0.0815866 -0.012760107
0000a0 d6 6c 13 3d d5 dc a9 3b 8e 2a 2e be 64 cf ad ba
       0.035992466 0.005183796 -0.17008421 -0.001326066
0000b0 42 05 23 be 6e 6b 05 3e cb fe b3 bd 41 63 12 3e
       -0.15919974 0.13029262 -0.08788832 0.14295675
0000c0 81 65 89 bd 5a a3 b2 3e 5e 00 aa bc cc b6 84 bd
       -0.067088135 0.34890252 -0.020752128 -0.06480178
0000d0 37 32 36 bd e6 69 b8 3a 50 a5 ae 3e 39 99 0f 3e
       -0.044481482 0.0014069646 0.34110498 0.14023294
0000e0 bf 27 b3 be b5 65 cc bd 03 62 76 bc e0 df 37 3d
       -0.3499126 -0.099803366 -0.015038016 0.04489124
0000f0 7e 66 3b bc db 08 98 3d 35 db 6e 3e 76 cd 9b be
       -0.01143801 0.07423564 0.23325808 -0.30430192
000100 9b f6 39 bd f2 15 17 be 41 4d 41 bc 5a cc 1f 3e
       -0.045401197 -0.14754465 -0.011798204 0.15605298
000110 1d 8a 99 3e a4 6b 0c 3d 33 08 c0 3b 7a cc fa 3d
       0.29988185 0.03428234 0.0058603524 0.12246032
000120 16 10 35 3e e9 32 c8 3d 26 45 23 3c 2c 38 7a 3d
       0.17681918 0.09775335 0.009965217 0.061088726
000130 8a e3 79 3c ed 9f 46 be e2 ab 39 3e 75 87 87 3c
       0.015252003 -0.19396944 0.18131974 0.016544083
000140 86 2f c7 3d f5 09 7a 3d fc 73 3d bd ce 9c 26 bd
       0.09725861 0.061044652 -0.04625319 -0.040676884
000150 cc e9 03 be fe 34 0b 3e 49 e8 04 3d be ef b2 bd
       -0.12882155 0.13594434 0.032448087 -0.087371334
000160 65 c8 96 3d bf 0f 50 bd c2 5c 08 3e d8 b5 12 be
       0.07362441 -0.050796267 0.13316634 -0.1432718
000170 67 20 16 3e de 46 18 3e ba 62 5c be 9f 2d ba bd
       0.14660798 0.14870784 -0.21522036 -0.09090733
000180 d6 e4 8b bc 54 a2 fe bc 80 21 03 3b 7c 9c 04 bc
       -0.01707689 -0.031083263 0.0020008981 -0.008093949
000190 b2 6a d3 bd df 51 02 3e cc 14 82 bd b6 f2 55 3d
       -0.10323085 0.12726544 -0.06351623 0.05223342
0001a0 dc a4 b4 bd 8d 5e 15 bd b7 1e 99 3c e9 2d 04 3e
       -0.08820507 -0.036467124 0.018691404 0.12908138
0001b0 ca f3 7b 3d b2 6f 25 3d 73 73 24 be 9e 36 04 bd
       0.061511792 0.040389724 -0.16059665 -0.03227865
0001c0 06 c7 09 3e 10 44 2c be 99 15 b0 3d f8 fe 88 3e
       0.13454828 -0.16822839 0.085978694 0.26757026
0001d0 45 3e 3b bd 75 80 b8 3d 74 17 0c 3e 28 6c ab bd
       -0.04571368 0.09008876 0.13680822 -0.083702385
0001e0 a3 f8 21 be eb 41 15 bc 04 dc 11 3e 49 01 67 3d
       -0.15817504 -0.009109954 0.14244086 0.05639771
0001f0 a6 a8 93 3e b1 72 d3 bb 43 81 df bd fe 2c 87 bd
       0.28839606 -0.0064528813 -0.109133266 -0.066003785
000200 98 15 c5 3d 68 00 23 bd 97 1e 87 bc 4b 5b 15 3e
       0.09623259 -0.03979531 -0.016494079 0.14585607
000210 05 5a ce 3d e9 81 8b 3d 6f a6 e8 3d 8c 79 50 3d
       0.100757636 0.06811888 0.1135987 0.050897166
000220 9a 1e b9 bd 82 96 67 3e aa 54 c0 bd d9 73 93 bd
       -0.0903904 0.22616008 -0.093911484 -0.071998306
000230 cb 8f 61 3c 3c 38 4a 3d 65 f8 63 3e aa 15 bb bd
       0.013767193 0.049370036 0.22262724 -0.091349915
000240 df a7 91 3d 29 c7 2d bd 07 02 75 3d 1a 82 53 3d
       0.07112097 -0.042426262 0.059816387 0.051637746
000250 1a da 3f 3e 0d ea 15 be 86 41 48 3d 8e 61 b2 3d
       0.18735543 -0.14640065 0.048890613 0.08710013
000260 0c 02 a0 bd 00 5f 06 be 5d 48 56 3e 0b a3 a9 3d
       -0.078128904 -0.13122177 0.20926042 0.08283051
000270 17 2f d3 bd e6 38 cd bd 73 66 d2 3d 40 01 72 bd
       -0.10311716 -0.10020618 0.10273447 -0.059083223
000280 a1 46 19 be 2f 16 a9 3d f2 0d d8 bd ba 48 db bc
       -0.14968349 0.08256184 -0.10549535 -0.026768077
000290 c9 19 a5 3d da c4 0a 3e 17 f7 30 3c 51 65 9f bd
       0.08061559 0.13551655 0.010801098 -0.077829964
0002a0 a7 0f 2e 3d 44 cf 0e 3e 16 48 06 bd 8d 3f 3d 3e
       0.042495396 0.13946253 -0.03278359 0.18481274
0002b0 12 e8 2f 3e c5 4d 51 bd 22 fe a3 be 32 30 86 bd
       0.17178372 -0.051099557 -0.32029825 -0.06552161
0002c0 46 66 17 3e ea 35 10 3e 81 81 6f bc da 68 bb 3d
       0.14785108 0.14083067 -0.0146182785 0.09150858
0002d0 6a a6 b0 bc 8f 32 90 bd d1 1b 0d 3e c7 a6 56 be
       -0.021563727 -0.07040893 0.13780142 -0.20962058
0002e0 53 78 45 bd 21 4a ef bd 9a d9 5c be 38 7e 5c 3d
       -0.048210453 -0.11684061 -0.21567383 0.05383131
0002f0 96 a1 32 be 33 f1 34 bd 79 2d 14 3b 57 1d 5f 3d
       -0.17444453 -0.044175338 0.0022610112 0.05447134
000300 a0 9c 5f bd 4f a7 59 be 83 5c 44 3e bc 71 2c 3e
       -0.05459273 -0.2125523 0.19175915 0.16840261
000310 f6 b3 6c 3c ab 01 6c 3e b0 3b e2 bd ed f6 00 3e
       0.014447203 0.23047511 -0.11046541 0.12594195
000320 bb 46 34 3c 67 e2 bb 3d 4a 0c 5c 3c 5f 0f 73 bd
       0.011003192 0.09174042 0.013430664 -0.05934083
000330 73 2f 42 3e 8c 3b a9 3c 8b 03 eb 3d cb a4 03 be
       0.18963413 0.020658277 0.11475285 -0.12855832
000340 ff 72 4a bd 87 46 0b 3e e8 98 12 3d 67 a5 a8 bd
       -0.049426075 0.13601123 0.035790354 -0.08234673
000350 c0 cd 1e bd 78 1c 5e 3e ca 7b 91 3d d3 b3 e0 bd
       -0.038770437 0.21690547 0.07103689 -0.10971799
000360 71 ea 75 bb d6 79 82 3d 3e bc 4a 3d 8a 3d 9a 3d
       -0.0037523771 0.063708946 0.049495928 0.07531269
000370 59 d3 ca 3c 22 31 0e 3e 6b f1 3e be 0e 17 81 3e
       0.024758982 0.1388593 -0.18646781 0.25212902
000380 b0 33 0d 3b 48 dd b6 3d 00 af db 3d 47 65 d2 3d
       0.00215457 0.08928925 0.10726738 0.10273223
000390 56 7e 43 be 11 e1 02 3e ce 8c 1d 3d fa f2 bc 3d
       -0.19091162 0.12781169 0.03846436 0.092260316
0003a0 d1 d6 da 3c 2b 24 d2 bd 4b d4 38 3c ce 35 7b 3d
       0.02671376 -0.10260805 0.011281083 0.06133061
0003b0 e5 d9 be 3d a5 45 3c 3d c4 46 88 3d da ee 1e be
       0.09318904 0.045964856 0.066541225 -0.15520802
0003c0 c0 62 78 3e 51 c7 f3 bd df f5 91 bb 59 b2 b0 3d
       0.2425642 -0.11903251 -0.004454359 0.08627767
0003d0 9f d5 ee 3d a4 6a 58 be 24 b1 0a 3e aa aa 92 3c
       0.11661839 -0.2113443 0.13544136 0.017903645
0003e0 3c 6e e7 3c 64 87 bc 3d 7d 85 44 3d 2d 04 c9 3c
       0.028250806 0.09205511 0.047978867 0.024538124
0003f0 33 bd 82 3d 8d 0d d1 bd 11 96 8e 3d 1b 27 b8 3c
       0.06383743 -0.10207663 0.06962217 0.022479584

lstm.weight_hh_l0 f4 [256, 64]
000000 95 34 03 3f 78 2f 25 3c 37 ec 4f 3e 60 78 60 be
       0.5125211 0.010082118 0.20304953 -0.2192092
000010 0c 26 97 be 70 00 62 3e 9f 79 d8 bd 65 af 05 3d
       -0.29521215 0.2207048 -0.105700724 0.032637972
000020 56 82 57 3c 89 1b 71 bd dd ba 3c 3e f8 02 83 bd
       0.013153633 -0.05886415 0.18430658 -0.063970506
000030 12 db 4b bd 72 88 09 3f eb 44 40 be 7a 6a 01 be
       -0.04976947 0.53723824 -0.1877629 -0.12638274
000040 d1 a4 1e 3e dc b8 00 bc a2 9d 01 3e 09 d5 af 3e
       0.1549256 -0.007856574 0.12657788 0.3434222
000050 bb b6 44 3e 28 9f 60 3e 59 93 be 3d b6 21 8f 3e
       0.19210331 0.21935713 0.09305448 0.27955407
000060 a3 6b fa bd 95 7a ce bc 0b 16 8c 3d 6f 07 87 be
       -0.12227561 -0.025204936 0.06840142 -0.2637286
000070 dc 32 6e 3e 30 71 e4 3e 00 e0 e7 bc 79 67 7f 3e
       0.23261589 0.44617605 -0.028305054 0.24941815
000080 dd c1 91 bd 89 e9 99 3d 86 ba 95 bd 5a 99 a6 3d
       -0.071170546 0.075152464 -0.07310967 0.08134718
000090 d8 cc 0f 3f c1 9a ff bd 99 1c fd bd 93 6a 19 bf
       0.5617194 -0.12480689 -0.1235897 -0.59928244
0000a0 54 4a 1f 3e 6f fc 86 bd f7 ee 7e be eb e2 4c bf
       0.15555698 -0.06591117 -0.24895845 -0.8003375
0000b0 49 ed cf bd 65 e9 27 be 5d c2 8a 3c 53 d9 f3 bd
       -0.101526804 -0.16397627 0.016938383 -0.11906686
0000c0 33 1a 2f 3e f7 cc 93 3d 79 79 4c bc a6 32 dc 3e
       0.17099838 0.07216828 -0.012480133 0.43007392
0000d0 b2 cd 7d bd 22 48 35 be 0c 46 59 3e 2a 64 de be
       -0.061963744 -0.17703298 0.21218127 -0.43435794
0000e0 b2 1b 39 3e 15 75 02 3e 73 18 ea 3e 3e cf 9c bd
       0.18076971 0.12739976 0.45721778 -0.07656716
0000f0 87 bb 97 be 39 33 56 3f d7 f6 1b bc 50 ff 95 3d
       -0.2963526 0.8367191 -0.0095193 0.073240876
000100 7d a6 54 be ac 68 03 be 4c 19 c5 be 86 06 b1 be
       -0.20766635 -0.12832898 -0.38495862 -0.3457529
000110 a5 20 91 3e d6 3f cb be 06 b3 da 3e 24 bb f6 3e
       0.28345218 -0.3969714 0.4271471 0.48189652
000120 b4 6b e3 3e e6 0a ee be c6 91 f5 be 4e 80 e3 3e
       0.44418108 -0.4649269 -0.4796278 0.44433826
000130 8b fb 03 3f 0f 85 6b be cb f2 68 3e cf 31 78 3e
       0.515557 -0.22999977 0.22748868 0.2423775
000140 50 f2 0f bf c3 50 da 3e f9 e5 fc be 48 35 d0 3e
       -0.56229115 0.4263974 -0.49394205 0.4066565
000150 bb f5 c4 be 0f d2 f8 be f2 51 c9 3e 60 00 2a be
       -0.38468727 -0.48597762 0.39320332 -0.16601706
000160 33 e3 10 3f 27 12 0d 3f 6d aa b6 3e d7 fa 8a 3c
       0.5659668 0.55105823 0.356769 0.016965313
000170 05 02 6f be 17 47 fb 3e be c6 1d bf 1e 58 d4 be
       -0.23340614 0.49077675 -0.6163138 -0.41473478
000180 b7 8b db 3e 9d 15 86 bc d2 a2 11 3f c3 a4 24 be
       0.4288003 -0.016367728 0.5688907 -0.16078477
000190 4a b2 8b 3e 60 fa 72 be 87 d6 13 3f fc 53 4a be
       0.2728446 -0.23728323 0.5774922 -0.197586
0001a0 1e e8 13 be c1 4c 0a bf 8f 76 cd 3e 12 1d 15 3d
       -0.14444014 -0.5402337 0.40129516 0.036404677
0001b0 32 bc 9f 3e fc 8b bf 3e 16 c2 12 3f 02 da dc 3e
       0.3119827 0.37411487 0.573274 0.43135077
0001c0 dc 13 96 3e b4 73 d6 be 83 d1 8a 3e f2 dc 27 be
       0.29312027 -0.4188515 0.2711297 -0.16392878
0001d0 f2 19 bb be 85 82 ff 3e 11 e5 8b be 06 f8 19 be
       -0.36543232 0.49904266 -0.273232 -0.1503602
0001e0 fc 48 be be 09 be 08 bf df 4b 40 3e f3 79 87 3e
       -0.37165058 -0.5341497 0.18778943 0.26460227
0001f0 ec 07 0d 3e e4 2f 91 3d b7 e0 8f 3e ad 71 de be
       0.13772553 0.070892125 0.2810113 -0.43446103
000200 db b5 fe 3c f2 aa 28 3e a7 9f 8b be 9e 31 47 be
       0.031092575 0.1647146 -0.27270243 -0.19452521
000210 1b d4 38 3e 11 08 32 be d2 0a 5f 3d 2a 65 58 3d
       0.18049662 -0.1738589 0.05445368 0.052830853
000220 f0 a6 01 3e 15 9c 2d bd 46 17 55 bd ed 4d ed 3c
       0.12661338 -0.04238518 -0.05202415 0.028967822
000230 63 67 38 3e e7 53 a3 bc ff b9 ac 3d a0 b5 b8 3d
       0.18008189 -0.019937469 0.084339134 0.09019017
000240 6a 31 4b be 4a 22 bb 3c 01 df 52 bd 70 21 af 3d
       -0.19843069 0.022843499 -0.051482204 0.085512996
000250 34 e5 d3 bd 53 d3 5d bd fa 19 af 3d e8 43 17 3d
       -0.103464514 -0.054156613 0.085498765 0.036929995
000260 5d 6f 10 bd f0 cb 6d 3e dc a3 51 bb 95 f6 52 bd
       -0.035262454 0.23222327 -0.0031988537 -0.05150469
000270 b8 31 29 3e 15 b0 fe 3c 18 85 22 bd 2b 63 82 be
       0.16522872 0.031089822 -0.03967771 -0.25466284
000280 e8 12 18 3e 80 33 2c 3c a5 17 48 3e 9b a2 09 bc
       0.14850962 0.010510325 0.1954027 -0.008400585
000290 b8 67 25 3e 87 6b 03 be d4 15 7b 3d f6 cf 2c bc
       0.16152847 -0.12833987 0.061300114 -0.010547629
0002a0 c5 cf 76 3d 53 49 a7 bd e0 6d 4d 3e 4e 13 b6 3c
       0.06025674 -0.08168282 0.20061445 0.022226002
0002b0 fd 4f ae bc 88 ca 89 3b 25 a0 42 3e 57 5c c4 3b
       -0.021278376 0.004205052 0.19006403 0.005992453
0002c0 62 1a f0 3d 94 ae 12 be 56 28 b1 3d 52 2a 61 3b
       0.11723782 -0.14324409 0.086502716 0.00343575
0002d0 b7 4f 17 be ed 5b cc 3c 9d 06 05 be 04 7b 39 bd
       -0.14776503 0.024946177 -0.12990804 -0.045283332
0002e0 f0 bc e5 bd 23 13 99 3c f5 80 02 3e 5c ee 2c 3d
       -0.112176776 0.018685883 0.12744506 0.042219505
0002f0 b6 4e ff bc 08 d5 ce bd 06 cc 73 bd e2 37 ad bb
       -0.031165462 -0.10099226 -0.059520744 -0.0052862028
000300 b3 d3 55 3e c4 b8 9a 3d 7b 08 21 3e e9 e2 81 bd
       0.20881538 0.075547725 0.15725891 -0.06342108
000310 94 1a db bd fb c1 69 bd 9e 8f ff bd 54 a9 d6 3d
       -0.10698429 -0.05706976 -0.12478565 0.104815155
000320 a4 19 59 3d 19 0d 11 be c1 fc 60 bd db 3b 55 bd
       0.05300297 -0.14165153 -0.054928545 -0.052059036
000330 66 46 55 3d e1 2c a8 ba 08 6f 7a bd 7c c8 0e be
       0.05206909 -0.0012830758 -0.061141044 -0.13943666
000340 12 b2 37 3e e0 93 1f be 64 1f 26 3e e3 1a dd 3e
       0.17939022 -0.15583754 0.16222912 0.43184575
000350 cd 46 00 3e 10 51 4c 3e df 13 98 3e 5c 04 0a 3f
       0.12527008 0.19952798 0.2970266 0.539129
000360 f6 7a 9f 3b d1 87 c4 bc db fd 44 3e 7e 8f 5e be
       0.004866953 -0.023990544 0.19237463 -0.21734425
000370 c1 ac f0 3d f6 b3 1e 3e 6b aa 31 3d 8e b2 f6 3c
       0.117517 0.15498337 0.043375414 0.030114438
000380 84 58 b0 bd 84 52 da bc 91 fe 20 be 7f fe e7 3d
       -0.08610633 -0.026650675 -0.1572211 0.11327838
000390 cb 92 0b 3e cb 27 83 be 03 ca 6a bd 89 a0 d5 be
       0.13630216 -0.25616297 -0.05732156 -0.4172404
0003a0 71 79 af bd 40 b3 94 be db 7c cd bd 9a 76 af be
       -0.08568085 -0.29043007 -0.1003358 -0.34270173
0003b0 c7 20 dc bd d9 24 fd bd 1b cb 9d bd af e4 c5 bc
       -0.10748439 -0.12360544 -0.07704755 -0.024156896
0003c0 e2 7d 4d 3e b7 ae 7d bd a7 e9 0d 3e e8 4a 96 3e
       0.20067552 -0.0619342 0.13858663 0.29354024
0003d0 65 00 e1 bd 7e 93 6a bd 55 22 c4 3d b1 cf fd bc
       -0.109864034 -0.057269566 0.09576861 -0.030982824
0003e0 71 a3 f7 3d 41 74 a0 3c cd 0e 7c 3e 7f 63 13 be
       0.12091721 0.019586684 0.24615021 -0.14393423
0003f0 5a 58 72 bd 0d 6e 0e 3f 8b 2e c0 bc 0c 54 63 3e
       -0.05916629 0.55636674 -0.023459693 0.2220003

lstm.bias_ih_l0 f4 [256]
000000 be 93 3c be 79 94 9b bd d3 f8 11 3f d0 29 57 be
       -0.18415734 -0.07596678 0.570203 -0.21012044
000010 6e a7 92 3e 79 90 82 3e a1 6e f4 3c de 7f 9a 3d
       0.28643364 0.2550085 0.029837908 0.0754392
000020 a8 0f 4a be 4e 27 49 bb aa f4 0d 3d 6a 72 a7 3d
       -0.19732535 -0.0030693593 0.034657158 0.081761196
000030 d7 fe d1 3d 43 39 99 be d7 62 43 bd 18 70 63 3c
       0.10253685 -0.299265 -0.047701683 0.013881706
000040 2d 07 7c 3d 14 13 56 bd ea db 7a 3e 65 20 12 3e
       0.06153028 -0.052264288 0.24497953 0.1427017
000050 81 a8 c2 3d e7 b8 3b 3e 78 99 9b be ea e4 23 be
       0.09504796 0.18332253 -0.30390525 -0.16005293
000060 00 3b 25 be 65 a8 52 bc 45 5e e0 bd b3 b2 97 be
       -0.16135788 -0.012857531 -0.109554805 -0.29628524
000070 f9 bd 4a be 04 0b b0 bd 21 e8 33 bd 7b f2 8d 3e
       -0.19799031 -0.08595851 -0.043922547 0.2772406
000080 5b 22 22 3d 97 a4 f2 bc fd bd 00 be 54 44 81 bc
       0.039583545 -0.029619498 -0.12572475 -0.015779652
000090 c9 20 b3 be 9c 6a a1 bd 9e 47 f9 3d b8 af 29 3d
       -0.3498595 -0.07881662 0.12171863 0.041427344
0000a0 14 b9 3d be 8a 16 ac bd 6a 03 9e 3d b5 31 22 be
       -0.18527633 -0.084027365 0.07715495 -0.15839274
0000b0 6d b2 d5 bd cc bb 8f 3e ba e9 32 be d0 5d b9 3d
       -0.10434423 0.28072965 -0.17471972 0.090510964
0000c0 2b 67 8e 3b 47 45 00 3e 65 27 29 be 85 bb 37 be
       0.0043457947 0.12526427 -0.16518934 -0.17942627
0000d0 49 5d df bd a3 90 83 3d bf a8 db bd 6d bb 18 be
       -0.109064646 0.06424072 -0.10725545 -0.14915247
0000e0 1c 1c c3 3c e7 15 33 bd 87 b2 8e be b4 f6 1c be
       0.023817115 -0.04372206 -0.2787058 -0.15328485
0000f0 01 cb 5e be d4 b1 00 bc d6 e6 81 be fe bc 3b 3e
       -0.21757127 -0.0078548975 -0.25371426 0.18333814
000100 c3 a1 a6 3c 30 be 3b 3e 2c 6a 7c 3e 03 08 ea 3c
       0.020340806 0.1833427 0.24649876 0.028568273
000110 6e 0a 54 3e 9c 06 04 3e 86 a0 10 3d f6 9a 32 bc
       0.20707104 0.12893146 0.035309337 -0.010901203
000120 6f 10 9c 3e 0e 0b 6b 3e 89 3d 14 3e 04 22 b3 3e
       0.30481288 0.22953436 0.14476599 0.3498689
000130 b1 22 69 3e 48 6c a5 3d f6 3e 86 3d c7 9d a5 3d
       0.2276714 0.08077294 0.065549776 0.08086734
000140 01 2e 46 3d 3e 84 87 3e 74 5d c0 3e ed de c3 3d
       0.048383716 0.2646808 0.375713 0.09564004
000150 ee 54 e8 3d c4 03 da 3d d7 54 e4 3c 0b 9e 7b 3d
       0.11344324 0.106452495 0.027872486 0.06143002
000160 0f 1d 70 3e 2f 91 2e 3d ea 71 38 3e 11 16 3a bd
       0.23448585 0.042618927 0.18012205 -0.0454312
000170 d2 b5 81 3d 96 7c 8b 3e a3 f4 f6 3d 79 35 11 3e
       0.063335076 0.2724349 0.120583795 0.14180554
000180 4a d0 57 3e 7d 53 a1 3b 11 45 84 3e 60 45 de bd
       0.2107555 0.0049232827 0.25833943 -0.10853076
000190 02 03 f3 bc aa 47 97 3d b1 ac 86 3e 1f ca 8b 3e
       -0.02966452 0.07386716 0.26303628 0.27302644
0001a0 27 95 05 3d 82 ca 96 3e b3 c4 43 3e c2 05 8c 3b
       0.032612946 0.29451376 0.19118004 0.0042731473
0001b0 38 36 48 3e 5e 09 28 3e 08 37 08 3e d2 09 77 3e
       0.19551933 0.16409823 0.13302243 0.2412484
0001c0 41 2e d8 bc a5 ba 9e 3e 51 c2 0f 3e 83 11 b8 bd
       -0.026389243 0.31001773 0.1403897 -0.08987715
0001d0 86 c6 68 3e e0 94 b5 3e cf 3b 96 3e 76 20 02 3e
       0.2273198 0.35465145 0.29342505 0.12707695
0001e0 56 82 d3 3e fe 6d 7c 3d 03 a4 8f 3e dd 5b 40 3e
       0.41310376 0.061628334 0.2805482 0.18785043
0001f0 45 44 0e 3d 8b 31 13 3e 43 2c af 3d a4 2d 81 3e
       0.034733076 0.14374368 0.08553364 0.25230134
000200 1d 1d 88 be 15 8a 05 3e ff 53 c6 be ff ec 38 be
       -0.26584712 0.13040955 -0.3873596 -0.18059157
000210 e7 d5 a5 3e 6d f6 99 be ba 86 1c 3e c3 9c fa 3c
       0.32389757 -0.3007082 0.15285769 0.030592328
000220 46 08 82 3e d2 df 80 3c af 9b 9b 3d 1b e6 c1 3d
       0.25396937 0.015731726 0.07598054 0.09467717
000230 38 d3 85 3e 64 10 79 bd e2 d6 d4 3e 80 95 bf 3e
       0.2613771 -0.060806647 0.41570193 0.37418747
000240 c5 88 ad bd bc be 38 3e 5e c3 9e be 1c e7 77 3c
       -0.08473352 0.1804151 -0.31008428 0.015130784
000250 cb a4 51 be f9 fd 92 be 37 22 8d bc 37 22 7c 3b
       -0.2047302 -0.2870939 -0.017228229 0.0038472542
000260 61 8b f7 bc 19 ee c9 3c a3 95 5a 3e 31 8c f3 bd
       -0.030217828 0.024649667 0.21346144 -0.11891974
000270 1d 04 5a bd 7a 27 bb 3d 26 7a 41 be 71 52 9e be
       -0.05322658 0.09138389 -0.18894252 -0.30922273
000280 f7 0a 6a 3e 9c cc 18 3d 86 bb b4 3c 84 ff 2a 3d
       0.22855745 0.037304506 0.022062074 0.041747585
000290 82 e0 9c 3c 48 87 b8 bd 09 46 29 3e 68 5b d6 bc
       0.019150022 -0.09010178 0.16530623 -0.026166633
0002a0 84 ea d3 bc c7 48 16 be cb 1b c5 3e 3b 5f e2 3d
       -0.025868662 -0.146762 0.38497767 0.1105332
0002b0 90 dd 29 3e 00 64 8f 3e d3 91 5e 3e 35 d3 9e 3e
       0.16588426 0.2800598 0.21735315 0.31020513
0002c0 7e 30 ef 3a a3 99 eb bd 0e 1c 1b 3e 5d 70 b1 bd
       0.0018248705 -0.11503913 0.15147421 -0.0866401
0002d0 f8 ff 5d be eb c1 54 3e 85 fe 83 be 1a bd 85 be
       -0.21679676 0.20777099 -0.2578012 -0.26120836
0002e0 78 d2 69 bd 98 b4 01 be 66 93 b4 bc 39 4e d6 3d
       -0.057085484 -0.12666547 -0.022042941 0.104641385
0002f0 29 4d 09 3c ce b4 f5 3d 3b 82 ed bd 03 b2 6a be
       0.008380213 0.119973764 -0.11597105 -0.22919469
000300 46 2c e0 3e 59 f7 ab bc 67 d1 76 bd ff 77 f6 bc
       0.43783778 -0.020991968 -0.060258295 -0.030086515
000310 7f ca af 3e 37 b2 91 3e 4a f7 0e 3e 5d 12 dd 3e
       0.3433418 0.2845628 0.13961521 0.43178073
000320 df 0f 76 3d de 08 83 bc 75 52 41 3e a4 d9 2b 3e
       0.06007373 -0.01599544 0.18879111 0.16782242
000330 f9 e2 a7 bd dc 51 52 3e 82 cb 9b 3e dc 6b 9d 3e
       -0.081975885 0.2053904 0.30428702 0.30746353
000340 d2 d8 8d bd 4b c8 d6 3d b6 f3 05 3e 36 92 c3 3e
       -0.06926121 0.104874216 0.1308125 0.38197488
000350 64 ab df 3d 9c 40 15 3e e1 67 ad bd 74 ac 8e be
       0.10921362 0.14575428 -0.08467079 -0.27865946
000360 93 6b 2b 3d 72 0a ad 3e e3 32 01 be 5b 54 53 be
       0.041850638 0.33797032 -0.12617068 -0.20637648
000370 5c 72 12 3e 6c 7b b9 3e f9 4f a1 bd b8 cc 06 3f
       0.14301437 0.36226976 -0.07876582 0.52656126
000380 42 8e a1 3d 05 89 7c bc 18 25 25 3e c7 60 e3 bd
       0.07888462 -0.015413527 0.16127431 -0.11102443
000390 71 2f 35 3e b2 f5 7b 3d f4 9b 1d 3d 80 1e 78 3e
       0.17693879 0.06151361 0.038478807 0.24230385
0003a0 bd 56 96 3d 56 f2 c8 3d 57 fc 91 bc 03 34 13 3e
       0.07340763 0.09811847 -0.01782052 0.1437531
0003b0 00 0f 29 3d b7 dd a1 3e d2 c3 43 bd cd 69 e0 bd
       0.04127407 0.31614468 -0.04779417 -0.1095768
0003c0 97 6d 9f 3e 17 f4 8f 3c 6d 3c 96 3c 73 68 85 be
       0.31138298 0.017572446 0.01833936 -0.2605625
0003d0 75 86 60 be 8f cd 12 3e 2a 34 74 bc 95 aa 2d 3b
       -0.21926291 0.14336227 -0.014905015 0.002649938
0003e0 96 5f aa 3d 3e 91 00 3f bf a1 85 3c 6b 23 94 3c
       0.08319013 0.5022162 0.016312478 0.018083295
0003f0 66 33 78 bd d6 1f 9b 3e 07 2c 38 be 4f f7 23 3e
       -0.060595892 0.30297726 -0.17985545 0.1601231

lstm.bias_hh_l0 f4 [256]
000000 a8 77 f6 bd 3b 45 03 bd 10 fe e6 3e 89 9f 85 bd
       -0.12034541 -0.032048445 0.4511571 -0.065245695
000010 74 cc 9c 3e 4a cf 95 3e c2 9d 17 be 7f 69 0a 3e
       0.30624735 0.29259712 -0.14806274 0.13516806
000020 90 33 1c be 7b 37 f4 bd 80 2d c3 bd 42 81 b6 3d
       -0.15254045 -0.119246446 -0.09530163 0.08911373
000030 24 a4 ee 3c 5a 5e 35 be f1 4c 07 3e 00 b6 82 3c
       0.029131003 -0.17711774 0.13212945 0.015955925
000040 62 80 aa bd 29 7c 66 ba 8a 29 a1 3e db d4 f1 3d
       -0.08325268 -0.0008792305 0.31477004 0.11808177
000050 b4 87 06 3e bb 99 67 3e 7f b3 20 be 3c 8b 31 be
       0.13137704 0.22617237 -0.15693472 -0.1733827
000060 19 53 1a be 70 33 bc bd ca f1 36 be 5b 4a c4 bd
       -0.15070762 -0.091894984 -0.17865673 -0.09584495
000070 54 89 82 be b3 2c 11 3b ca 88 3f be b4 e9 d2 3e
       -0.25495398 0.0022151887 -0.18704525 0.41193926
000080 db 00 ab 3c 6f 20 d2 bd 4b 9f aa bd c3 44 06 be
       0.020874431 -0.102600925 -0.08331164 -0.13112168
000090 6c 96 91 be 34 8a 28 be a5 de 10 3e 2e 89 fe bc
       -0.28435075 -0.1645897 0.14147432 -0.031071272
0000a0 14 d3 de bd 1b b2 dd bd c5 f6 96 3e 4c 2e 9b be
       -0.10880104 -0.108249865 0.29485145 -0.3030876
0000b0 61 10 a2 bd d1 9b 69 3e d2 2b 17 be d2 7f 72 3d
       -0.0791328 0.22813345 -0.1476281 0.05920393
0000c0 8b 2a 0f 3d 8f e8 91 3c 24 be 64 be 46 de ef bd
       0.03495268 0.017811088 -0.22338158 -0.11712317
0000d0 6e bf f3 3d 4b f0 a9 3b e6 ec c3 bd 0f 3d 81 bd
       0.11901747 0.005186116 -0.09566669 -0.06310474
0000e0 f6 ab e6 bd 59 c0 20 3e a4 df 8a be a6 f3 03 be
       -0.11263268 0.15698375 -0.2712375 -0.12885913
0000f0 9e a6 77 be 1d 70 7d bd 85 54 e7 bd 07 56 34 bd
       -0.24184653 -0.061874498 -0.11295418 -0.044027355
000100 78 29 30 be 1a a5 84 3e 68 bd 3f 3e 17 b6 ab 3c
       -0.17203319 0.25907212 0.18724597 0.02096085
000110 e8 bf a8 3d ec bd 58 3e ad b6 8e 3d d2 f1 32 3e
       0.08239728 0.211662 0.069684364 0.1747506
000120 0f 01 a7 3e 25 48 f5 3d 93 87 a4 3d 12 99 46 3e
       0.32617995 0.11976651 0.08033671 0.19394329
000130 24 2a c4 3d 1b f5 df bd aa db 99 3d 92 6b 7a 3e
       0.0957835 -0.10935422 0.07512601 0.24455097
000140 ac f8 98 3d 90 f7 24 3e d3 b2 57 3e 9a 72 38 3e
       0.074693054 0.16110063 0.2106431 0.18012467
000150 cf 15 c5 3d a3 43 50 3e 14 0b 38 3d e9 c5 e4 bd
       0.096233 0.20338301 0.04493244 -0.11170561
000160 25 78 3b 3e 37 27 52 3e 00 5f 64 3e fb 70 0a be
       0.1830755 0.20522772 0.22301865 -0.13519661
000170 63 12 a0 3b 17 47 ce 3d 0c 43 81 3e 16 8b 5f 3e
       0.0048850044 0.10072153 0.25246465 0.21830401
000180 b0 ef 79 3d 8b d1 5b 3d eb b6 73 3e b8 4d 9c 3d
       0.0610196 0.053666633 0.23800246 0.07632011
000190 3c c7 e3 3d 4e e5 9b 3d 63 6b 95 3d 55 cd a9 3e
       0.11121985 0.07612096 0.07295873 0.33164468
0001a0 99 76 46 3c 39 ae 7d 3e 82 95 7d 3e 7c e2 ce 3c
       0.012113237 0.24773492 0.24764064 0.02525448
0001b0 ae 0a 3d 3e ae ea 04 3e 98 78 01 3e af 5c 89 3b
       0.18461105 0.12980148 0.12643659 0.004191957
0001c0 30 89 1a 3e 74 60 19 3e 5f 37 8b 3d 5c bc 35 3d
       0.15091395 0.149782 0.067976706 0.044369087
0001d0 f0 93 62 3e a5 4a 61 3e ce 7e b5 3e 0c 07 ec 3d
       0.22126746 0.22001131 0.35448307 0.115247816
0001e0 64 48 ba 3e f9 2e 1c 3e fc be d9 3d c1 da 2d 3e
       0.36383355 0.15252294 0.106321305 0.16977979
0001f0 a5 d7 d1 3d a9 3b 99 3e bb c6 e7 bd 97 f3 44 3e
       0.10246209 0.2992833 -0.11317202 0.19233547
000200 be 26 ab bd ce b6 74 bb 32 f2 4d be 60 83 1d be
       -0.08356999 -0.0037340405 -0.20111921 -0.15382147
000210 72 cb c7 3e 13 57 94 be 1e 2b 59 3e d4 60 33 3c
       0.39022404 -0.28972682 0.21207854 0.010948379
000220 57 cb 31 3d 0e 06 8e 3d 08 b5 30 be 1c bb 66 3e
       0.04340681 0.069347486 -0.17256558 0.22532314
000230 2e 71 f7 3d 4d 39 eb bd f1 7e a0 3e c3 5e c9 3e
       0.12082134 -0.11485539 0.3134685 0.3933011
000240 ca fd 34 be ce 75 71 3e 60 0f 96 be 5c 69 8d 3d
       -0.17674938 0.23580095 -0.29308605 0.06904861
000250 5b ad 4f be 60 6e 87 be 4e 38 ff 3d 3a c4 03 3e
       -0.20280974 -0.26451397 0.12461911 0.12867823
000260 c8 8e 16 3e c0 29 99 3d 89 cf 44 3e e7 17 4c be
       0.14702904 0.07478666 0.19219793 -0.19930993
000270 32 98 99 bc ee 41 14 3d d2 85 4a be a9 a8 a9 be
       -0.01874933 0.036195688 -0.19777611 -0.3313649
000280 5b 25 ab 3d 52 2f c7 bc 88 64 16 bd d3 fe fc 3d
       0.08356734 -0.024314556 -0.036716968 0.12353291
000290 8b e9 8d bd 65 cb 00 3d 4d 66 a8 3d 53 e6 8e 3d
       -0.069293104 0.031443972 0.08222637 0.069775246
0002a0 7a 4b f6 bd 4d 3c 30 be 0e a0 c1 3e 09 42 9f 3e
       -0.12026115 -0.17210503 0.37817425 0.31105068
0002b0 f3 fc f7 3d 24 f6 ab 3e 0d bf ee 3d 03 7d 74 3e
       0.12108793 0.33586228 0.11657534 0.23875813
0002c0 09 73 6d bd 0a 05 7e be 77 b5 2c 3e 0c 53 7c 3d
       -0.057971034 -0.2480661 0.16866098 0.061602637
0002d0 58 53 0b bd 31 42 72 3e 20 1b 13 be ed 2b 97 be
       -0.03401503 0.23658063 -0.14365816 -0.295257
0002e0 87 cd c2 bc fc 2a d9 bc 08 da 30 3d d5 54 7e 3d
       -0.023779644 -0.026509754 0.04317668 0.06209262
0002f0 3e bd 7f bb 3d 2f 4b bd 3e a6 0d 3d 69 20 8c be
       -0.003902271 -0.049605597 0.03458237 -0.27368477
000300 fb ed e4 3e 68 6b 27 3c 64 30 48 3d da c6 8d bd
       0.44712815 0.010218479 0.048874274 -0.069226936
000310 0e 6f 04 3f 3f b7 df 3d 38 ab 63 3d bc 22 e1 3e
       0.51731956 0.10923623 0.05558321 0.43971813
000320 29 d1 f3 3d 83 de 7a bd b4 6c dc 3d 78 c9 9e 3e
       0.119051285 -0.06124736 0.10762921 0.31013083
000330 c1 31 ea bd c9 29 28 3e 4d c2 81 3e 9c 8b c5 3e
       -0.11435271 0.1642219 0.25343552 0.38583076
000340 d9 26 b0 bd 6b f6 1f bd a5 99 e4 3d 08 12 8a 3e
       -0.086011596 -0.039053362 0.11162118 0.26966882
000350 cc f3 39 3e 0f ce be 3c 27 27 9d bc 0a 88 b2 be
       0.18159407 0.023291616 -0.019183708 -0.34869415
000360 2a 44 79 bc e0 8c 65 3e 74 7a 44 be 8e b8 5c be
       -0.0152140055 0.22417021 -0.19187337 -0.21554777
000370 c8 fc ec 3d af ed be 3e 3b 2a ef bd 08 14 db 3e
       0.11571652 0.37290713 -0.11677977 0.4278872
000380 36 c0 e6 bd 6d c7 be 3d 24 c2 58 3e 24 74 72 3d
       -0.1126713 0.09315381 0.21167809 0.05919279
000390 93 9a 68 3e 9c aa 2c be e3 6f 00 bd d5 f9 ae 3e
       0.22715215 -0.16861957 -0.031356703 0.34174982
0003a0 2a de 4b 3d e0 26 46 3d 2d 39 c8 bb 8c 64 00 3e
       0.04977242 0.048376918 -0.0061103315 0.12538356
0003b0 e9 08 8f 3c db 08 5e 3e ae bc 5b bd a0 0d e8 bd
       0.017460303 0.21683066 -0.053646736 -0.11330724
0003c0 0d 67 a2 3e eb 57 3e be ef 8a 6e 3d a3 13 3f be
       0.31719247 -0.18588226 0.058237966 -0.18659835
0003d0 5e 4f 81 be a2 1d bf 3d 19 ee db 3d b6 63 24 be
       -0.25255865 0.09331824 0.10738773 -0.16053662
0003e0 40 92 18 3e cc 54 0c 3f 90 a4 9f 3d 26 46 45 3e
       0.1489954 0.5481689 0.0779506 0.19265041
0003f0 7d 15 66 bc 72 85 89 3e 16 69 86 bd 84 40 b4 3e
       -0.014043209 0.26859623 -0.06563012 0.35205472

fc.weight f4 [1, 64]
000000 63 49 fc 3f 36 f8 91 3f f1 62 87 bf 32 5a c3 bf
       1.9709896 1.1403873 -1.057707 -1.52619
000010 bc d3 89 3f 40 41 8a bf 0d 8d 7e 3f 13 0b 9e 3f
       1.0767741 -1.0801163 0.99433976 1.234713
000020 0a ae 93 3f d0 38 9c bf a7 e3 9b bf 87 c4 92 3f
       1.1537488 -1.2204838 -1.2178849 1.1466225
000030 aa 34 8d 3f 47 f1 db 3f b4 84 87 3f 9b 1b 8a 3f
       1.1031697 1.7183007 1.0587373 1.0789675
000040 70 25 8b bf 19 e3 93 3f c9 bb 82 bf 28 45 9a 3f
       -1.08708 1.155368 -1.0213557 1.2052355
000050 e8 5d 8d bf 9b 23 76 bf 92 c1 ab 3f 5e 49 26 40
       -1.1044283 -0.9614808 1.3418448 2.598228
000060 42 ec 8f 3f 81 5b 94 3f 11 0e 97 3f 06 a1 ef bf
       1.1243975 1.1590425 1.1801168 -1.8721015
000070 54 69 bf 3f e4 05 96 3f 52 a7 83 bf f4 d6 91 bf
       1.4954019 1.1720548 -1.0285437 -1.1393723
000080 28 64 8c 3f 91 06 9f bf 51 49 89 3f 69 5b 8f bf
       1.0968065 -1.2423879 1.0725499 -1.1199771
000090 59 63 ec 3f 1d 6f 98 bf d1 4a 83 3f 78 de 9f bf
       1.8467818 -1.1908909 1.0257207 -1.2489767
0000a0 9b ae f0 3f 1f 17 90 bf 6b f7 88 3f 2b 1a 0f c0
       1.8803285 -1.1257056 1.0700506 -2.2359722
0000b0 62 eb 87 3f 76 51 84 3f ae cc 7f 3f c0 e2 88 3f
       1.0618708 1.033736 0.9992169 1.0694199
0000c0 4b 09 99 3f 4c 40 84 bf ca cf a3 3f 5b 1c a7 3f
       1.1955961 -1.0332122 1.2797787 1.3055528
0000d0 7e 6f 96 bf 1f ce 8e 3f 5d b9 9a bf 71 96 c5 bf
       -1.1752775 1.1156653 -1.2087818 -1.5436536
0000e0 67 13 a0 bf ba 4f 9a bf d4 45 b5 3f 38 96 99 3f
       -1.2505921 -1.2055581 1.4161935 1.1998968
0000f0 00 09 cb bf 29 47 99 3f 18 6e 07 c0 10 03 90 bf
       -1.5862122 1.1974841 -2.1160946 -1.1250935

exp_avg f4 [11, 128]
000000 1c 8c f8 3a 20 b2 40 3b f7 82 14 ba bd 12 4a 3a
       0.0018962654 0.0029403046 -0.0005665267 0.00077084807
000010 1b 2b 92 3b b0 a6 3c bb 2f fa c4 3a 6c 8b df 37
       0.004460705 -0.0028785877 0.0015028174 2.6648595e-05
000020 72 1f 3a 3b f1 75 5e 3a 7c b1 e6 38 1e 70 31 bb
       0.002840009 0.00084862026 0.00011000314 -0.0027074884
000030 b7 b1 55 3b 9f be d0 39 2d 36 23 bb ac 89 cb 3a
       0.0032607147 0.00039814875 -0.0024904117 0.00155287
000040 66 0a 0a 3a 8d 4c f9 ba ce 5d 3c ba 70 32 e0 3a
       0.0005265832 -0.0019020006 -0.0007185609 0.0017104875
000050 48 3c a4 ba 12 18 f7 3a c0 d4 4b 37 92 33 81 ba
       -0.0012530172 0.0018851778 1.2149278e-05 -0.0009857288
000060 5e 79 a5 ba 8e dd 99 39 57 ff b5 39 01 87 b2 ba
       -0.0012624671 0.00029347505 0.00034713253 -0.0013620557
000070 56 2d 9c ba c4 ff dd b9 21 1d 07 3b 31 90 50 b9
       -0.0011915367 -0.00042342965 0.0020616727 -0.00019890141
000080 7c f2 06 3b b6 b2 58 3b bc 05 de bb aa 2d 21 3b
       0.002059131 0.0033065504 -0.006775586 0.0024593868
000090 e4 73 80 3b 40 24 b1 bb 73 23 df 39 90 65 ab 3a
       0.0039200652 -0.0054059327 0.00042560286 0.0013076533
0000a0 a0 1e 70 3a 06 a0 8c 3b e4 51 e5 b8 22 0e e5 38
       0.0009159837 0.004291537 -0.00010934824 0.000109222034
0000b0 8f 99 6f ba ab 16 cf ba 37 ef a2 3a 71 a0 b2 39
       -0.00091400085 -0.0015799602 0.0012430911 0.00034070344
0000c0 dc 6b 43 ba 0e 91 5f 3a af b8 dc ba f0 44 a7 3b
       -0.0007454732 0.000852839 -0.0016839708 0.0051046535
0000d0 42 65 ea b8 4d 1a a3 ba 96 8f 35 bb 6b b3 ae ba
       -0.0001117685 -0.0012443751 -0.0027703992 -0.0013328617
0000e0 1c 72 d8 3a 37 88 f9 3a cc 6a cb b8 86 8d 39 ba
       0.00165135 0.0019037788 -9.699687e-05 -0.00070782786
0000f0 58 41 1c ba 9a 9f 69 ba 8e 50 a6 ba 2f 72 4d bb
       -0.0005960665 -0.0008912027 -0.0012688802 -0.0031348576
000100 9a 50 5b bb 4c 88 6d 3b d2 6e 58 bb b0 ef d5 ba
       -0.003346479 0.003624457 -0.0033025038 -0.0016322043
000110 c6 e7 3b bb 5b 75 96 ba 67 71 9b ba a4 be 66 ba
       -0.0028672083 -0.0011479066 -0.0011859358 -0.00088022114
000120 bc db 83 3a ae 20 e2 ba d8 ff 25 bb ad 2e 83 3a
       0.0010059993 -0.0017252171 -0.0025329497 0.0010008417
000130 5c cb 8a bb 78 b1 11 3b 4e aa 8c ba 96 bb b8 ba
       -0.004235668 0.0022231024 -0.0010731907 -0.0014093991
000140 60 05 34 ba 96 d2 dc 3a 9d 47 2e 3b 9c 4f eb 39
       -0.0006867256 0.0016847427 0.0026592978 0.00044882006
000150 1a b8 23 3b b8 fd 84 3a 1f 25 96 39 2c 1e a6 3a
       0.002498156 0.0010146415 0.00028637887 0.0012673787
000160 d2 9a 61 3a fa 1e 8f 3a 22 6d a6 3b 66 dc 2e 3b
       0.0008606139 0.0010919266 0.0050789276 0.002668166
000170 c9 44 8c ba 6f 5a 0a 39 b2 bb 3f 3a 48 77 3e bb
       -0.0010701652 0.00013194395 0.00073140406 -0.0029062796
000180 20 bd 4e bb 33 05 21 ba 46 d0 c1 39 43 e0 7d 39
       -0.0031545833 -0.00061424373 0.00036967004 0.00024211504
000190 9c 05 36 bb e2 23 32 3b b6 19 fa b9 65 3d 2c bb
       -0.002777434 0.0027182032 -0.00047702872 -0.0026281711
0001a0 d0 23 2e b7 3d 7d 57 3a 4a 47 1d 3b 69 b6 97 b9
       -1.0379546e-05 0.0008220261 0.002399879 -0.0002893687
0001b0 50 9e 12 3b 00 31 fe 3a c5 33 66 ba ba fa e2 ba
       0.0022372194 0.0019393265 -0.0008781518 -0.0017317154
0001c0 e1 81 26 bb 4a f3 85 3a c1 06 82 3b 58 3b f3 b8
       -0.0025407004 0.00102196 0.0039680903 -0.000115981966
0001d0 95 42 da b9 92 d6 9c 3a 31 d7 15 bb 16 b2 13 3b
       -0.00041629808 0.0011965802 -0.002286386 0.0022536567
0001e0 1e 4a 0d bb 3f 98 1e 3b 26 eb 36 3b aa ac e4 bb
       -0.002155907 0.0024199632 0.0027911155 -0.006978591
0001f0 40 52 f8 b8 8c f8 8e 3b fe fa 7d 3a 22 7c b8 ba
       -0.00011840882 0.004363125 0.0009688585 -0.001407508
000200 62 91 ff b9 98 c0 27 ba fe 10 0b 3b 78 b5 92 bb
       -0.0004874571 -0.0006399243 0.0021219845 -0.004477199
000210 53 42 4b 3a 0e 31 a4 ba f4 43 a9 3a 1e 1d bf b9
       0.00077537185 -0.0012526826 0.0012913928 -0.00036452053
000220 04 1b 24 3b ea f3 77 3a b7 d8 33 3b 5d e6 66 39
       0.0025040517 0.0009458648 0.0027442405 0.00022020326
000230 67 6c 8b 3b 16 22 d1 ba 3c 47 ef ba 47 e4 65 3a
       0.004254866 -0.0015955593 -0.0018255482 0.0008769673
000240 ce 2c e3 b9 3e 2c c9 3a 5c a7 85 3a 19 77 4a bb
       -0.00043330196 0.0015348268 0.0010196972 -0.0030893742
000250 0a 35 10 3a 3a 6e 1f 3b c8 a7 0f bb 49 1b 2c 3b
       0.00055010675 0.0024327175 -0.0021920074 0.002626138
000260 19 c6 76 bb eb 0a 9b 39 00 45 9c 39 b1 8e 83 3b
       -0.0037654696 0.00029572038 0.00029806048 0.004014813
000270 a3 8d 6b 3b 02 62 d4 3a 17 f0 be ba 62 16 96 ba
       0.0035942576 0.0016203525 -0.0014567402 -0.0011450762
000280 43 22 0c 3a 3b 08 8e ba 70 04 b8 b7 f5 1c 98 ba
       0.00053456816 -0.0010836193 -2.1936576e-05 -0.001160531
000290 c2 36 0e bb ae 17 83 3a ba 83 0a ba d1 f8 fc b9
       -0.0021700119 0.0010001564 -0.0005283911 -0.00048250568
0002a0 0d fe 95 39 92 6d f9 3a c2 02 de ba 6e 4b a1 b8
       0.00028608777 0.0019029847 -0.0016938078 -7.691128e-05
0002b0 0f 1c 5d b9 90 29 12 39 1e f3 d8 3a 98 a3 3b ba
       -0.00021086655 0.00013939128 0.0016551947 -0.0007157861
0002c0 0a e3 c2 3a c8 d1 d3 ba de d0 42 3a dc 3b d6 ba
       0.0014868688 -0.0016160542 0.00074316363 -0.0016344744
0002d0 e8 83 23 ba cb 4a aa ba 02 7d 19 bb a8 53 03 38
       -0.0006237612 -0.0012992261 -0.0023420458 3.1310745e-05
0002e0 a7 03 26 3b 09 b1 96 ba 00 8d 88 b9 3a 12 93 39
       0.0025331767 -0.0011496852 -0.00026044995 0.00028051605
0002f0 e0 c8 c7 3a b1 d1 0b 3a 02 41 63 bb 28 5a 49 3b
       0.001524236 0.00053336757 -0.00346762 0.0030723903
000300 69 fc 2e 3b 60 fb e4 38 e0 e1 47 38 1c ce 6e b9
       0.002670074 0.000109187094 4.765566e-05 -0.0002277423
000310 31 1a 87 bb 4a f9 21 ba 99 4a 8e 3a 57 8b e4 ba
       -0.0041229953 -0.00061788096 0.0010855972 -0.0017436546
000320 56 bb b4 ba 69 7f bf ba 6d 83 c9 3a a9 81 2e ba
       -0.0013788741 -0.0014610115 0.0015374251 -0.0006656894
000330 72 c7 35 39 a6 d0 47 3a e2 b0 26 bb 32 1f 5b 3a
       0.00017335804 0.00076223386 -0.002543502 0.00083588355
000340 24 7d 8b ba 69 62 41 ba f1 b8 ef 3a bd 7d 27 3b
       -0.0010642153 -0.000737703 0.001828937 0.0025557124
000350 9b 31 24 3a c9 9a 0f bb 90 4f 2d 3a 0d 82 1b 3b
       0.00062634953 -0.0021912328 0.0006611282 0.002372864
000360 1c 97 fe 3a c3 1a fe ba f4 9d 50 ba c2 d8 29 3a
       0.0019423696 -0.0019386638 -0.0007958107 0.0006479138
000370 70 b5 a7 b8 22 fa ec ba fc 88 2b 3b 40 c9 19 39
       -7.996976e-05 -0.0018079916 0.0026174178 0.00014666189
000380 80 b7 d6 b6 22 42 b6 3a e8 87 2b 3a bf f0 43 3a
       -6.399059e-06 0.0013905207 0.0006543384 0.00074745336
000390 34 1a 63 3a dc ed d6 ba e3 da 1a 3a cb 28 14 ba
       0.00086632674 -0.0016397792 0.00059072505 -0.00056518306
0003a0 48 5f 74 38 b4 23 20 b9 48 67 a0 ba 5c 9b 72 ba
       5.826287e-05 -0.0001527209 -0.0012237811 -0.0009254718
0003b0 de 2e 82 ba 2d da 2d bb 0c 80 e6 39 50 dd c9 3a
       -0.000993218 -0.0026527748 0.0004396442 0.0015401039
0003c0 58 17 d3 ba 08 b9 27 38 aa ad 72 b9 af d8 3d bb
       -0.001610498 3.9988226e-05 -0.00023143613 -0.0028968265
0003d0 86 38 d3 b8 51 3b b4 ba 6c 6b 76 ba c8 00 33 ba
       -0.00010071792 -0.0013750588 -0.00094001624 -0.00068284245
0003e0 ad 07 53 3b e4 54 ad 39 84 93 22 bb d6 7f 14 b9
       0.003220062 0.0003306038 -0.0024807164 -0.00014162002
0003f0 5e 8a 4a bb 00 29 ce 3a 2e 50 b4 b9 fe 13 7d 3a
       -0.0030905227 0.0015728772 -0.00034392014 0.0009654163
